face_edgetpu.tflite (tflite, 611520 bytes, 14 tensors)

sequential/conv2d/Conv2D f4 [16, 5, 5, 3]
0	0x3dd2f1fd	0.10300062
1	0x3d29e66c	0.041479513
2	0x3dea8875	0.11451808
3	0x3c99738e	0.018731859
4	0x3df021ad	0.11725173
5	0x3e0ad91b	0.13559382
6	0xbd9434c0	-0.07236624
7	0xbc95e18e	-0.01829603
8	0x3d9aa42c	0.075508446
9	0x3d3e87dc	0.046516284
10	0xbc1f2819	-0.00971415
11	0xbd261c3f	-0.04055428
12	0xbde2f1b1	-0.11081255
13	0x3caa4f90	0.020789891
14	0xbd546cf1	-0.051861707
15	0xbd80ce6e	-0.06289373
16	0x3d8369c1	0.06416655
17	0x3da84b1e	0.082174525
18	0x3df98f38	0.1218552
19	0xbcb0258b	-0.021502277
20	0x3d2dab7c	0.04239987
21	0xbd84d6b7	-0.06486266
22	0xbd9ee295	-0.07758061
23	0x3ced3180	0.028954268
24	0xbde08303	-0.109624885
25	0xbdccbb12	-0.09996618
26	0xbd53dfe3	-0.051727187
27	0xbc0d5fcb	-0.008628796
28	0xbd3ec28c	-0.046572253
29	0xbd19fa1f	-0.03759205
30	0xbc8fc4c5	-0.017549882
31	0xbdcc9f4d	-0.09991322
32	0x3d75fe9b	0.060057264
33	0x3dd63342	0.104589954
34	0xbb16b9a1	-0.0022998827
35	0xbd940de1	-0.0722921
36	0xbd9c16a0	-0.07621503
37	0xbd38d96a	-0.045129217
38	0xbc60616c	-0.013695102
39	0x3c16cd69	0.009204247
40	0xbd68fe91	-0.0568834
41	0x3e025a01	0.12729646
42	0xbdd41a76	-0.103566095
43	0xbdeae2cb	-0.114690386
44	0x3d778b19	0.06043539
45	0x3d936d44	0.07198575
46	0xbd8cf6e7	-0.068830304
47	0x3ddbd9a2	0.107348695
48	0x3b4b902c	0.0031061275
49	0x3d32469d	0.043524373
50	0xbd6a057d	-0.05713414
51	0xbdb91690	-0.090375066
52	0xbd451ba8	-0.04812208
53	0x3d1a1366	0.037616156
54	0x3d3ef9b6	0.04662486
55	0x3d52ea22	0.051492818
56	0x3dde5ab3	0.10857143
57	0xbb19ee42	-0.002348796
58	0x3bc04b91	0.005868383
59	0xbd15987a	-0.036522366
60	0xbdb757bc	-0.08952281
61	0xbdc9720c	-0.09836206
62	0xbd2f9974	-0.042870954
63	0x3cdaf4d0	0.026728064
64	0xbd0aed61	-0.03391779
65	0xbd319ce7	-0.043362524
66	0x3dda4d36	0.10659258
67	0xbd8d2547	-0.06891876
68	0x3d0f22d0	0.03494531
69	0xbc9066e7	-0.017627193
70	0xbdbac4a4	-0.091195375
71	0x3dd1b7e8	0.102401555
72	0x3c9057cb	0.017619988
73	0xbda93818	-0.08262652
74	0xbd1b4d95	-0.037915785
75	0xbd10e8d4	-0.035378292
76	0xbaab9444	-0.0013090451
77	0x3d003915	0.031304438
78	0xbd79fc82	-0.061031826
79	0x3d10c18a	0.035340823
80	0xbd981b85	-0.07427124
81	0xbdc932f4	-0.09824172
82	0xbd7a6c6c	-0.061138555
83	0xbcce1da8	-0.025160626
84	0xbd76d12f	-0.060258087
85	0xbdf3d969	-0.11906702
86	0x3da9b903	0.08287241
87	0x3d233b66	0.03985157
88	0x3d95f887	0.073227935
89	0xbdbc9c4e	-0.092095
90	0x3d05c448	0.03265789
91	0x3d2bc041	0.041931394
92	0x3ba3a3a5	0.004993873
93	0xbd956b87	-0.072959
94	0xbde755f0	-0.11295688
95	0x3d2ef0fd	0.042710293
96	0xbc260534	-0.010133076
97	0xbd9580cf	-0.07299959
98	0x3ca78c37	0.020452602
99	0xbdf5f8e8	-0.12010366
100	0xbcd0fd56	-0.025511425
101	0x3b9de2b6	0.004818286
102	0x3c950d96	0.018194955
103	0xbdcdbba5	-0.10045556
104	0xbd85311e	-0.06503509
105	0x3dab137f	0.08353328
106	0xbc77879d	-0.015108016
107	0x3c373e27	0.011184252
108	0xbd42b435	-0.04753514
109	0xbd0666a6	-0.032812737
110	0xbd4dd17f	-0.05024862
111	0x3d89f543	0.06736233
112	0x3db212cb	0.08694991
113	0xbdd941d7	-0.10608261
114	0xbd5f34e9	-0.05449382
115	0xbd433528	-0.047658116
116	0x3cbe67bc	0.023242824
117	0x3d08a4c3	0.033360254
118	0xbd451c69	-0.048122797
119	0xbdacc5f9	-0.08436198
120	0xbdb51c44	-0.08843282
121	0xbd692cbd	-0.05692743
122	0x3d9fa920	0.0779593
123	0x3cb3e343	0.021958953
124	0xbde710e2	-0.11282517
125	0xbd84cdfa	-0.064845994
126	0x3b5b67c0	0.0033478588
127	0xbd8ec486	-0.069710776
128	0x3dbef44d	0.093239404
129	0xbcc74e49	-0.024329321
130	0xbd44b029	-0.048019562
131	0x3dc87915	0.097887196
132	0xbdacaeb3	-0.08431759
133	0xbd9ab5fc	-0.07554242
134	0x3dadd44d	0.08487759
135	0xbd8bd431	-0.06827582
136	0xbdd0140e	-0.10160075
137	0x3d4efd93	0.050534796
138	0xbdbb091c	-0.09132597
139	0xbd36c960	-0.04462564
140	0xbcfa04d4	-0.03051988
141	0x3cb1b023	0.021690434
142	0x3ce587a4	0.02801878
143	0xbd1d731e	-0.038439862
144	0x3da7136a	0.08158
145	0x3bb8c7ab	0.0056390367
146	0xbdc8595f	-0.09782671
147	0xbb6742d7	-0.0035287642
148	0x3d83284d	0.06404171
149	0x3db61c7b	0.08892151
150	0xbdd9b7a4	-0.1063073
151	0xbc2b4808	-0.010454185
152	0xbdacbe15	-0.08434693
153	0xbdde0396	-0.10840528
154	0xbd3e2cf9	-0.046429608
155	0xbdc2b8cf	-0.09507906
156	0xb9519359	-0.00019986684
157	0x3d08fec7	0.0334461
158	0x3d5d5c0d	0.054042865
159	0x3d320063	0.0434574
160	0xbc269f95	-0.010169883
161	0x3c6fd75f	0.014638751
162	0xbbd2ee46	-0.006437096
163	0x3dc4537e	0.09586237
164	0xbd7fcdd3	-0.06245215
165	0x3dbee9b2	0.093219176
166	0x3d9856fb	0.07438465
167	0xbdb73f14	-0.08947578
168	0xbdcaad4f	-0.09896337
169	0x3cdaa9c0	0.026692271
170	0xbd8f983a	-0.07011457
171	0xbd268f1b	-0.04066382
172	0xbc34892c	-0.011019032
173	0xbdc8223c	-0.09772155
174	0xbccf691a	-0.025318671
175	0x3aca3fe6	0.001543042
176	0xbdc42696	-0.09577672
177	0xbd95fa7f	-0.07323169
178	0xbda9b692	-0.08286776
179	0xbd188a55	-0.0372413
180	0xbda030ca	-0.07821806
181	0x3c7bb12d	0.015362066
182	0x3d1d25b5	0.03836604
183	0x3d6eb92e	0.05828207
184	0x3d73a56f	0.05948394
185	0x3d6e72a6	0.058214806
186	0x3d9a0b67	0.07521706
187	0xbb836ea6	-0.004010993
188	0x3d0fa4bd	0.035069216
189	0x3d90b628	0.070659935
190	0x3ba0e21e	0.004909768
191	0xbe0142da	-0.12623158
192	0x3d77e97b	0.0605254
193	0xbd13b9cd	-0.036065865
194	0xbad2ea38	-0.0016091531
195	0x3c2f7285	0.010708456
196	0x3da2abd4	0.0794293
197	0x3d93a0b5	0.07208387
198	0x3da30bec	0.07961258
199	0x3d9cd12c	0.07657084
200	0x3d393b11	0.045222346
201	0xbd1786fb	-0.03699396
202	0xbc8fba0a	-0.017544765
203	0x3d85ee50	0.06539595
204	0x3da16095	0.0787975
205	0x3dc19444	0.094521075
206	0x3d199bfe	0.03750228
207	0xbd892f54	-0.0669848
208	0xbd94e326	-0.072698876
209	0x3d3d500f	0.046218928
210	0x3d482a4f	0.048868474
211	0xbdca0e7a	-0.098660424
212	0xbd9b75b0	-0.075908065
213	0xbd992b23	-0.07478931
214	0xbde6657c	-0.11249825
215	0x3b630c6e	0.003464486
216	0xbd49f8d8	-0.04930958
217	0x3d429b5f	0.047511455
218	0xbe00a504	-0.12562948
219	0x3db9dc8a	0.090752676
220	0x3cb9baa6	0.022672009
221	0xbdf7f3d2	-0.12107052
222	0x3db74fb6	0.089507505
223	0x3cbcbe74	0.023040034
224	0x3d4d5b51	0.050135914
225	0xbe050059	-0.12988414
226	0x3dc4999d	0.09599612
227	0xbc39b1d9	-0.011333906
228	0xbdbed9e0	-0.093189
229	0xbc94d0a8	-0.018165901
230	0x3ce52cb0	0.02797541
231	0xbded1eb4	-0.11578122
232	0x3bae1922	0.0053130547
233	0x3afeb79e	0.0019433384
234	0xbb327e9a	-0.0027236105
235	0x3c1377c5	0.009000723
236	0xbd147615	-0.036245424
237	0x3d43f6f4	0.047842935
238	0xbca33df8	-0.01992701
239	0xbcc8d837	-0.024517162
240	0x3db67ea2	0.08910872
241	0x3910f2f1	0.00013823413
242	0x3d3a8b30	0.045542896
243	0xbdba4a80	-0.09096241
244	0x3d7151a3	0.058915745
245	0x3c0d8fa8	0.008640207
246	0xbd221f3d	-0.039580572
247	0x3daff29b	0.08591195
248	0xbd370345	-0.044680852
249	0x3d3204d6	0.043461643
250	0xbdb3d0d0	-0.08780062
251	0x3cb2e3a4	0.021837063
252	0xbdac2e19	-0.0840723
253	0xbd417ac9	-0.047236238
254	0x3e10f14e	0.1415455
255	0x3d0d6dc4	0.03452851

sequential/conv2d/BiasAdd/ReadVariableOp/resource f4 [16]
0	0x3d19812b	0.0374767
1	0xbcc09626	-0.023509096
2	0xbc6bc3ad	-0.014389914
3	0x3d026913	0.031838488
4	0x3d0d649c	0.034519777
5	0xbd17c7e0	-0.03705585
6	0x3cdce3a3	0.026964014
7	0x3c7fa7ac	0.015603941
8	0x3c7ad6a5	0.015309964
9	0x3bf75f8a	0.007549231
10	0xbc8c86ae	-0.017154064
11	0x3b13bae6	0.002254182
12	0xbad13c4e	-0.0015963407
13	0xbbc60281	-0.006042779
14	0xbd0229f4	-0.03177829
15	0xbcd6944d	-0.026193762

sequential/conv2d_1/Conv2D f4 [32, 3, 3, 16]
0	0xbab2fcb3	-0.0013655633
1	0x3dd38158	0.10327405
2	0xbd798c80	-0.060925007
3	0x3dc98bba	0.09841104
4	0xbd1619ef	-0.036645826
5	0xbdd757cf	-0.10514795
6	0x3df50e48	0.119656146
7	0x3d0717ef	0.03298181
8	0x3dfb69f2	0.12276067
9	0x3c2fbec7	0.010726637
10	0xbd5bcee9	-0.05366412
11	0x3e10249d	0.14076467
12	0xbd1264fc	-0.035740837
13	0xbddff3b6	-0.10935156
14	0xbdaf07b2	-0.0854639
15	0xbd73b89a	-0.05950222
16	0x3d22a461	0.039707545
17	0x3dd452c2	0.10367347
18	0xbcb72d97	-0.022360606
19	0x3e394912	0.1809428
20	0x3e2df44d	0.16987725
21	0xbdde80b5	-0.10864393
22	0xbc8be06b	-0.017074784
23	0x3deae45c	0.11469337
24	0xbc2d9f36	-0.010597041
25	0xbdd8e58b	-0.10590657
26	0xbd4473db	-0.04796205
27	0x3d6a5a6a	0.05721513
28	0xbcfee369	-0.031114297
29	0x3d7d99a7	0.061914112
30	0xbd4d5152	-0.05012638
31	0xbd8aa08d	-0.06768904
32	0x3df6a3ce	0.12042962
33	0x3dc742ee	0.09729563
34	0xbd0dd2f9	-0.034625027
35	0x3e4b6efd	0.19866557
36	0x3da5a15b	0.08087417
37	0x3dc03746	0.093855426
38	0x3d3180be	0.04333567
39	0x3e03565b	0.12825911
40	0x3cd12201	0.02552891
41	0x3cf6c7c5	0.030124554
42	0xbd1d84e5	-0.038456816
43	0x3d7a35ab	0.061086338
44	0x3cedd50a	0.029032249
45	0xbd93cc50	-0.07216704
46	0x3e0d6843	0.13809304
47	0xbdafe746	-0.08589034
48	0x3e034717	0.12820087
49	0xbd90ce55	-0.07070605
50	0x3d14ccd7	0.036328163
51	0x3e012ad3	0.12613992
52	0x3d3899fe	0.045068733
53	0x3d4ef8f0	0.050530374
54	0x3db67a36	0.08910029
55	0x3d91c6de	0.07118009
56	0x3e18a440	0.14906406
57	0x3dc1ded7	0.094663315
58	0x3d37ace6	0.044842623
59	0xbd8eb54e	-0.06968175
60	0xba0018fb	-0.0004886535
61	0x3d0c12b2	0.034197517
62	0xbd898c8b	-0.067162596
63	0x3dcbdcd6	0.099542305
64	0x3d985243	0.07437565
65	0xbdcdc2e5	-0.10046939
66	0x3ca0dfb7	0.019637926
67	0x3e0bf5d5	0.13667996
68	0x3e24ac69	0.16081394
69	0x3d8d742f	0.06906926
70	0x3e604c76	0.21904168
71	0x3ca025d5	0.01954929
72	0xbd6a9760	-0.05727327
73	0x3d4d85d0	0.05017644
74	0xbdfc72c8	-0.1232658
75	0xbd4aabdd	-0.049480308
76	0x3c8d65d4	0.01726047
77	0xbd8aad7e	-0.06771372
78	0x3d0fe09f	0.035126325
79	0xbcfdbe16	-0.03097443
80	0x3d9099ed	0.07060609
81	0x3b9dc2f2	0.004814499
82	0x3d92908c	0.071564764
83	0x3e475dae	0.1946933
84	0x3db2eeaa	0.08736928
85	0xbdaf3845	-0.085556544
86	0x3e1ac0e9	0.15112652
87	0x3dd7055b	0.10499068
88	0x3dcb5945	0.09929136
89	0xbd256de6	-0.04038801
90	0xbdf8e459	-0.12152929
91	0x3d40a2f7	0.047030415
92	0x3d8be70f	0.0683118
93	0x3d9a6b36	0.0753998
94	0x3d936724	0.07197407
95	0xbdaa2b05	-0.083089866
96	0x3def5382	0.1168585
97	0x3cccf78f	0.025020389
98	0xbdae0807	-0.08497625
99	0xbc9e219a	-0.019303132
100	0xbca39c0f	-0.019971875
101	0xbc48f186	-0.012264615
102	0x3e5ae15a	0.21375027
103	0x3d8d4c1d	0.06899283
104	0x3d835f8d	0.06414709
105	0xbbf9c35f	-0.007622167
106	0x3d75fd96	0.06005629
107	0x3e043ea7	0.12914525
108	0x3d5302dd	0.051516403
109	0xbdbc1de1	-0.091853864
110	0xbd1ed83e	-0.038780443
111	0xbd18df75	-0.03732248
112	0x3df499aa	0.119433716
113	0xbdbceae8	-0.09224492
114	0x3c81695e	0.015797313
115	0x3e2a6ae5	0.1664234
116	0x3d9175dc	0.07102558
117	0xbc92feaf	-0.017943708
118	0x3db2408b	0.08703717
119	0x3dbe0853	0.092789315
120	0xbd136b69	-0.035991106
121	0xbe0b3546	-0.13594541
122	0x3dbdb4cf	0.09263002
123	0x3e0be60f	0.13661979
124	0xbd24d37d	-0.040240753
125	0xbdeea222	-0.11652018
126	0x3cdc2641	0.02687371
127	0x3d3d5458	0.046223015
128	0x3d18d638	0.03731367
129	0x3d879bf4	0.066215426
130	0xbdc42cec	-0.09578881
131	0x3e4d08fa	0.20022956
132	0x3dbbb0bf	0.09164571
133	0xbda4139e	-0.08011554
134	0x3de946a8	0.1139043
135	0x3da50e4c	0.080593675
136	0x3c4db9c6	0.012556499
137	0x3d349dcf	0.04409581
138	0xbd5358b7	-0.051598277
139	0x3da337a9	0.07969601
140	0x3c1f1efa	0.009711975
141	0x3dc08db8	0.09402031
142	0xbdd3466e	-0.10316168
143	0xbcf666a4	-0.03007824
144	0xbdbe692a	-0.09297402
145	0x3ce329c7	0.027729882
146	0x3dce629f	0.10077404
147	0xbdf73622	-0.12070872
148	0xbdfdbe46	-0.123898074
149	0xbd78ddd7	-0.060758438
150	0xbd1351b7	-0.0359666
151	0xbd97f1a4	-0.07419136
152	0x3a602bb8	0.00085514365
153	0xbd4dd2aa	-0.050249733
154	0x3dc98394	0.0983955
155	0x3d447a28	0.04796806
156	0x3d882595	0.06647793
157	0xbdc5026e	-0.09619604
158	0x3ca7cdcb	0.020483872
159	0xbcfe5f2c	-0.03105124
160	0x3d3b61b6	0.04574748
161	0x3ceda83c	0.029010884
162	0xbc48c625	-0.012254273
163	0xbc8b9e00	-0.017043114
164	0xbdab7943	-0.08372738
165	0xbdb1ca3f	-0.086811535
166	0x3c8aaf61	0.01692933
167	0x3d3393fd	0.043842304
168	0xbd98cd1b	-0.07460996
169	0x3d723ff3	0.059143018
170	0x3c0e8fa0	0.008701235
171	0xbd9d1bda	-0.07671328
172	0xbe07e850	-0.13272214
173	0x3c631642	0.013860287
174	0x3cbf8acf	0.023381619
175	0x3cbb0dc3	0.02283371
176	0xbddab46a	-0.106789425
177	0x3dc88f56	0.09792964
178	0x3d87b5c8	0.06626469
179	0xbdc22e03	-0.09481432
180	0xbde9131f	-0.113806
181	0xbd96087f	-0.07325839
182	0xbb8537a5	-0.0040654712
183	0xbc4cd2b0	-0.012501404
184	0xbd8ee777	-0.06977742
185	0xbcf0fbf2	-0.029417012
186	0xbd2823a6	-0.041049622
187	0x3d9e7fa7	0.077391915
188	0x3dcaa870	0.09895408
189	0xbd716d23	-0.05894197
190	0xbe121e1b	-0.14269297
191	0x3cae4a26	0.021275591
192	0xbd35e111	-0.044404093
193	0xbd16a010	-0.03677374
194	0x3cbd4248	0.023102894
195	0xbc3afc72	-0.011412727
196	0x3db3192b	0.08745035
197	0xbd6be5b1	-0.057592098
198	0xbd93c250	-0.072147965
199	0xbd9235bb	-0.071391545
200	0xbcef7e17	-0.029234929
201	0x3d2612d8	0.040545315
202	0x3daa8792	0.08326639
203	0x3d2e1dbf	0.042508837
204	0x3d854c95	0.065087475
205	0xbd91ff62	-0.071287885
206	0xbd977f17	-0.07397287
207	0xbd461647	-0.04836109
208	0xbd3fc150	-0.046815217
209	0x3cffef89	0.031242149
210	0x3d255ddd	0.040372718
211	0xbd6f92c0	-0.05848956
212	0xbdad55ec	-0.08463654
213	0x3d6cbe52	0.05779869
214	0x3dac3fa5	0.08410577
215	0xbdd35932	-0.10319747
216	0x3cc3e7b4	0.023914196
217	0xba9477c0	-0.0011327192
218	0x3d638334	0.055545047
219	0x3ca6919e	0.020333108
220	0x3cd58373	0.026063656
221	0xbc8a1670	-0.016856402
222	0xbd1dcc5c	-0.03852497
223	0xbd709c43	-0.058742773
224	0x3d7f2428	0.06229034
225	0xbd788aa1	-0.06067908
226	0xba1e12aa	-0.0006030003
227	0x3d18ec21	0.037334565
228	0xbe00bc82	-0.1257191
229	0x3d2b7f49	0.041869435
230	0xbd6a7088	-0.057236224
231	0xbdd9dfba	-0.106383756
232	0xbb0f2c96	-0.0021846644
233	0xbdefcc02	-0.11708833
234	0xbdd951e6	-0.10611324
235	0x3dbb405c	0.09143135
236	0xbd80844b	-0.06275233
237	0xbd871dd0	-0.06597483
238	0xbe11fafc	-0.14255899
239	0xbd85774d	-0.065168954
240	0x3cf0ce1e	0.02939516
241	0x3dc30471	0.095223315
242	0xbd03acb6	-0.03214713
243	0x3d445cdf	0.04794013
244	0xbd59bc28	-0.053157955
245	0x3d500cf5	0.050793607
246	0x3da54508	0.08069807
247	0x3c6b1f59	0.014350736
248	0x3da00945	0.07814268
249	0xbd7daf5f	-0.061934825
250	0xbdb6fb47	-0.08934646
251	0x3cf806bc	0.030276649
252	0x3d965e28	0.07342178
253	0xbd543e8a	-0.051817454
254	0x3d89c391	0.067267545
255	0x3c3e7684	0.011624936

sequential/conv2d_1/BiasAdd/ReadVariableOp/resource f4 [32]
0	0x3a9b8885	0.0011866248
1	0xbbae34ed	-0.005316368
2	0xbd0a57dd	-0.0337752
3	0xbd0f7141	-0.035020117
4	0xbccd9eb4	-0.02510009
5	0xbc0c8810	-0.008577362
6	0x3cf9bc43	0.030485278
7	0xbccb4dda	-0.024817396
8	0x3d130c93	0.035900664
9	0xbcf62ce9	-0.030050712
10	0xbc068876	-0.008211246
11	0xb94bae58	-0.00019424537
12	0xbd38daef	-0.045130666
13	0x3a9588dc	0.0011408585
14	0x3baebf57	0.005332868
15	0xbcda19e4	-0.026623674
16	0xbcc1ad6b	-0.023642262
17	0x3cfc1f9b	0.03077679
18	0xbc383713	-0.0112435995
19	0xbc83e117	-0.016098542
20	0x3bfb369a	0.007666421
21	0xbce34337	-0.027742011
22	0xbce239b7	-0.027615411
23	0xbcc5a49a	-0.02412634
24	0x3c85d667	0.016337587
25	0x3b9e21b0	0.004825793
26	0xbcdfa8e9	-0.027302222
27	0xbcb4175b	-0.021983793
28	0x3d0db959	0.03460059
29	0xbd0b3240	-0.03398347
30	0xbcf3ac2a	-0.02974518
31	0xbd097baa	-0.0335652

sequential/conv2d_2/Conv2D f4 [64, 3, 3, 32]
0	0xbcaa64ce	-0.02080002
1	0xbac56b83	-0.0015061948
2	0x3d9df97b	0.077136
3	0xbd76245c	-0.06009327
4	0x3db194a0	0.08670926
5	0xbc56f637	-0.013120226
6	0xbbc9ae06	-0.0061547784
7	0x3d6c1002	0.057632454
8	0xbd97fae0	-0.074208975
9	0xbca91635	-0.020640472
10	0x3d858616	0.065197155
11	0x3de01205	0.10940937
12	0xbd53da03	-0.051721584
13	0x3d8034de	0.062600836
14	0x3cb44541	0.02200568
15	0x3ce8976f	0.028392522
16	0xbd344cce	-0.04401856
17	0xbd4ebaf6	-0.05047127
18	0xb9c84823	-0.0003820072
19	0xbb311670	-0.002702143
20	0x3c08f347	0.008358783
21	0x3d0de62a	0.03464333
22	0x3d999866	0.07499771
23	0x3c8121c6	0.015763175
24	0x3d93a06c	0.072083324
25	0x3da6faa6	0.08153276
26	0x3d8bdba3	0.06829002
27	0xbd5797c5	-0.052634973
28	0x3b276752	0.0025543761
29	0xbc650b48	-0.01397974
30	0x3da310ab	0.079621635
31	0xbd0aed46	-0.033917688
32	0xbcf0feba	-0.029418338
33	0x3d923149	0.07138307
34	0xbd10a7c1	-0.035316233
35	0xbcc55a6f	-0.024090974
36	0x3cc4799b	0.023983767
37	0x3d58673d	0.05283283
38	0xbd55f74e	-0.0522378
39	0xbd86825f	-0.06567835
40	0x3d1518ee	0.036400728
41	0x3b8bffbf	0.0042724307
42	0x3d104f20	0.03523171
43	0xbba48e7a	-0.0050218673
44	0xbc4ad723	-0.012380394
45	0x3be82a0f	0.007085092
46	0x3b1e79d5	0.0024181504
47	0xbd0fecdd	-0.035138
48	0xbd8c7e4e	-0.06860028
49	0xbcafe1a4	-0.021469899
50	0x3cb09684	0.021556146
51	0x3d0cbe44	0.03436114
52	0x3d86925d	0.06570885
53	0xbd65cf75	-0.05610605
54	0xbd07267c	-0.032995686
55	0x3d76f479	0.06029174
56	0x3c27d737	0.010244182
57	0x3cc17fa8	0.023620442
58	0x3daca776	0.08430378
59	0x3cd833b9	0.02639185
60	0x3a54708a	0.0008103928
61	0x3d531367	0.051532175
62	0x3b44a177	0.0030003467
63	0x3a2a73b4	0.00065022265
64	0x3c90f459	0.017694639
65	0xbcf5e3f3	-0.030015921
66	0x3d4af171	0.049546663
67	0xbc8f8da0	-0.017523587
68	0xbd4190bf	-0.04725718
69	0x3cb7560b	0.022379896
70	0x3bb8f2da	0.0056441845
71	0x3d361ab6	0.044459067
72	0xbd5e71b0	-0.05430764
73	0x3c238135	0.009979536
74	0xbc0e6731	-0.008691595
75	0x3dbe5a26	0.09294538
76	0xbb91fa80	-0.0044549108
77	0xbcf38ae0	-0.029729307
78	0x3dbce3bd	0.09223125
79	0xbd31f237	-0.043443885
80	0x3d8fc034	0.07019082
81	0x3ca827f1	0.020526858
82	0x3c9d0665	0.019168088
83	0x3b363b62	0.002780639
84	0x3ab1c01c	0.0013561281
85	0xbd1c1c73	-0.03811307
86	0xbb986272	-0.0046504075
87	0x3db6c31c	0.08923933
88	0x3e059892	0.13046482
89	0x3d40e0e6	0.04708948
90	0x3d8cb942	0.068712726
91	0x3dbd5ead	0.092465736
92	0xbdc61e7c	-0.09673783
93	0xbcc0b9a9	-0.02352603
94	0xbd7f594e	-0.062341027
95	0x3dab37a2	0.083602205
96	0x3cbed9d9	0.023297237
97	0xbd6d671a	-0.057959653
98	0xbd39a1dc	-0.045320377
99	0x3d603e6c	0.05474703
100	0xbbf8ed3a	-0.007596639
101	0xbd97e54f	-0.07416784
102	0xbc9571e2	-0.01824278
103	0xbd07a8d9	-0.03312001
104	0x3d263384	0.040576473
105	0xbcd95e51	-0.026534231
106	0x3d84bc85	0.0648127
107	0x3e10ae2e	0.14128944
108	0x3ad635e7	0.0016342968
109	0x3ca9b593	0.020716464
110	0x3d63a310	0.05557543
111	0x3d83477e	0.064101204
112	0xbd3a873a	-0.04553912
113	0x3d8dac3c	0.06917617
114	0x3dccdaa0	0.10002637
115	0x3c426aa6	0.011866247
116	0x3dc8eecb	0.09811171
117	0xbd345ad4	-0.044031933
118	0x3da85a08	0.08220297
119	0x3cab27cd	0.020893002
120	0x3c33667c	0.010949727
121	0x3e002bff	0.12516783
122	0x3b9b4fc8	0.0047397353
123	0x3d9381a2	0.0720246
124	0xbd0a70da	-0.03379903
125	0x3d918e4b	0.07107218
126	0xbd02fb92	-0.031978197
127	0x3d2fbd0b	0.042904895
128	0x3d9c2032	0.07623328
129	0xbc7cb1b0	-0.015423223
130	0xbd1266a1	-0.035742406
131	0x3d014b87	0.03156617
132	0x3dad7df5	0.0847129
133	0x3d8bc587	0.06824785
134	0xbd548a43	-0.05188967
135	0x3cccc140	0.024994493
136	0xbc046be2	-0.008082362
137	0xbd330d94	-0.04371412
138	0xbce18bad	-0.027532423
139	0x3d1b170e	0.037863784
140	0x3d38188e	0.044945292
141	0x39680abf	0.00022129247
142	0x3c800fa7	0.015632464
143	0x3ca3fda0	0.020018399
144	0x3d8eea04	0.06978229
145	0xbcd07526	-0.025446486
146	0x3cac01a5	0.020996878
147	0x3d80d296	0.06290166
148	0x3d5281aa	0.05139319
149	0xbc827138	-0.015923128
150	0x3cf4ced2	0.029883776
151	0x3da6978b	0.08134373
152	0x3dc70c58	0.09719151
153	0x3c1e5214	0.009663124
154	0x3d951ece	0.07281266
155	0xba6675a6	-0.00087913347
156	0xbc886bba	-0.01665293
157	0xbcf5f48c	-0.030023836
158	0x3d234da8	0.03986898
159	0xbd1b8bf7	-0.037975278
160	0x3d98f862	0.0746925
161	0x3ca0d18b	0.019631168
162	0x3d5ea522	0.0543567
163	0x3d8a9a2c	0.06767687
164	0xbd1c8fc0	-0.03822303
165	0xbd2844f0	-0.04108137
166	0x3c3e1605	0.01160193
167	0xbc38628b	-0.011253963
168	0xbda8de27	-0.08245497
169	0x3db8f40d	0.09030924
170	0x3ca0b939	0.019619571
171	0x3e10b8ed	0.14133044
172	0x3dab6513	0.08368888
173	0x3d92480a	0.071426466
174	0xbc5758fc	-0.013143774
175	0xbd81f441	-0.06345416
176	0xbbe45127	-0.006967682
177	0x3d21896f	0.039437708
178	0x3d933c48	0.07189232
179	0x3d4a5bfc	0.04940413
180	0x3d9fc61e	0.0780146
181	0x3d196004	0.037445083
182	0xbb4b0ec0	-0.0030984133
183	0xbd84b267	-0.0647934
184	0x3cfbed0b	0.03075268
185	0x3d71782f	0.058952507
186	0x3cd4adff	0.025961874
187	0xbcaa0b70	-0.020757407
188	0xbd7fd6ba	-0.06246064
189	0x3d9f0982	0.07765485
190	0xbcb4e3dd	-0.02208131
191	0x3db5762b	0.088604294
192	0x3d931dd1	0.071834214
193	0xbd7b143c	-0.061298594
194	0xbc1224fc	-0.008919951
195	0x3d63814b	0.055543225
196	0xbc46dfb1	-0.012138293
197	0x3d26b56a	0.040700354
198	0xbd85f873	-0.065415286
199	0xbb8a628e	-0.0042231744
200	0xbd870f8e	-0.06594764
201	0x3caaa7d2	0.020831976
202	0x3da505b4	0.080577284
203	0x3e0e5232	0.13898543
204	0x3d13664d	0.035986234
205	0x3bf0c0af	0.0073471884
206	0x3dd3bb31	0.10338438
207	0xbcb874ec	-0.02251669
208	0x3d3390f3	0.043839406
209	0xbc2d7652	-0.010587292
210	0x3dc26f6c	0.09493908
211	0xbd5c8f28	-0.053847462
212	0x3dc521fb	0.09625622
213	0xbd3eacff	-0.0465517
214	0xbd5308da	-0.051522113
215	0xbcbe6583	-0.023241764
216	0x3e15f714	0.14645034
217	0x3d34c7fd	0.044136036
218	0xbb299271	-0.002587464
219	0x3d1e763d	0.03868698
220	0xbd4f8eb2	-0.050673194
221	0x3d58886d	0.05286448
222	0xbc16ae15	-0.009196778
223	0x3d7ef733	0.062247466
224	0x3d46ec2f	0.048565086
225	0xbd525b93	-0.051356863
226	0x3da46685	0.080273665
227	0xbd4af992	-0.049554415
228	0xbd083b90	-0.03325993
229	0x3d2e6695	0.0425783
230	0xbd8ecf82	-0.06973173
231	0x3d110f11	0.03541476
232	0xbc7e1c37	-0.015509657
233	0xbd924791	-0.071425565
234	0x3a59d3d0	0.00083094556
235	0xbc0c4701	-0.0085618505
236	0x3cf0ad31	0.02937946
237	0xbc9fadd4	-0.019492067
238	0xbd094d3e	-0.03352093
239	0xbb181c91	-0.0023210386
240	0xbd0c9ccf	-0.03432923
241	0x3d23d9ba	0.040002562
242	0x3d58e1ac	0.052949592
243	0xbd4db62b	-0.050222557
244	0x3d726f10	0.05918795
245	0x3db9689e	0.09053157
246	0x3d602706	0.054724716
247	0xbd80948d	-0.06278334
248	0x3cc675e6	0.02422614
249	0x3e1cda10	0.15317559
250	0xbb2889c6	-0.0025716885
251	0xbd35e6e8	-0.044409662
252	0x3c2ce90e	0.010553611
253	0xbd9b0a89	-0.07570369
254	0x3c456348	0.012047596
255	0xbc454b7d	-0.012041924

sequential/conv2d_2/BiasAdd/ReadVariableOp/resource f4 [64]
0	0xbcbacbfa	-0.022802342
1	0xbc88028e	-0.01660278
2	0xbc295b03	-0.01033664
3	0xbcb083ee	-0.021547284
4	0xbbe41f0b	-0.0069617084
5	0xbb5cd1b4	-0.0033694329
6	0x3c0267fe	0.007959364
7	0xbcae80cb	-0.021301648
8	0x3b0de42e	0.0021650898
9	0xbc92cc56	-0.0179197
10	0xbc2509e7	-0.010073162
11	0x3c18ea33	0.009333181
12	0xbce343fc	-0.027742378
13	0xbc1e47d6	-0.009660682
14	0x3c8f6136	0.017502408
15	0x3c99d5b6	0.018778663
16	0x3af389b6	0.001858047
17	0xbca1d6b3	-0.019755697
18	0x3cdbaa50	0.02681461
19	0xbc82430b	-0.01590111
20	0xbca58f70	-0.020209998
21	0x3c114542	0.00886661
22	0xb90e2919	-0.00013557485
23	0xbcb7d827	-0.022441937
24	0x3cef85de	0.029238638
25	0xbb817a5a	-0.003951353
26	0xbc86a971	-0.016438218
27	0x3cd6117c	0.026131384
28	0xbcbde67c	-0.023181193
29	0xbc02c012	-0.007980363
30	0x3cef6810	0.029224426
31	0xbcff4dbb	-0.031164994
32	0xbcc04149	-0.02346863
33	0x3ca18823	0.019718235
34	0x3cc07675	0.023493985
35	0xbb917c76	-0.0044398857
36	0x3c41a037	0.011817983
37	0xbcbf89a5	-0.023381064
38	0xbcdcc463	-0.026949113
39	0xbbb251f2	-0.0054418975
40	0x3b4e0d28	0.0031440947
41	0x3d002b39	0.03129122
42	0xbc3d7f44	-0.011565987
43	0x3cc5cef5	0.024146536
44	0x3bc0b015	0.0058803656
45	0xbc281c9d	-0.010260728
46	0x3ac3ba37	0.0014932816
47	0x3a7f0bd4	0.00097292406
48	0xbbdd5f62	-0.0067557553
49	0xbcdbe219	-0.02684121
50	0xbc0f91b1	-0.008762763
51	0xbcb4e3c4	-0.022081263
52	0xbcc1954d	-0.023630762
53	0x3c4d0272	0.01251279
54	0xbccc3c7a	-0.024931181
55	0x3d04f91e	0.03246414
56	0x3cd81af0	0.026380032
57	0xbcb5fed9	-0.022216247
58	0xbc94f644	-0.018183835
59	0xbba6ff2e	-0.0050963378
60	0x3b54957f	0.003243774
61	0xbb83d7a5	-0.0040235096
62	0xbbc63c20	-0.006049648
63	0xbc5e0988	-0.013552077

sequential/conv2d_3/Conv2D f4 [64, 3, 3, 64]
0	0x3cb12946	0.021626126
1	0x3d39fea8	0.045408875
2	0xbc9856d2	-0.018596087
3	0xbd7010c8	-0.058609754
4	0x3ce8221f	0.028336583
5	0xbd73d149	-0.05952576
6	0xbd89ede6	-0.06734829
7	0x3d70ac9f	0.058758374
8	0xbd4b4d48	-0.049634248
9	0x3ae6f4d7	0.0017620575
10	0x3d844ab4	0.06459561
11	0x3d3111d0	0.043229878
12	0xbd5aab18	-0.053385824
13	0x3ca326b6	0.01991592
14	0x3db138bc	0.08653399
15	0xbd52ef53	-0.05149777
16	0xb954d35c	-0.00020296633
17	0xbd890d63	-0.066920064
18	0x3b9a443f	0.0047078426
19	0x3d51aba6	0.051189087
20	0xbd558cae	-0.052136116
21	0x3cbff101	0.02343035
22	0x3d466912	0.048440047
23	0x3d6a43b4	0.057193473
24	0xbc953385	-0.018213043
25	0xbd400b1e	-0.046885602
26	0x3d21a8ee	0.039467745
27	0xbd9d519c	-0.076815814
28	0xbbeaf891	-0.0071707447
29	0x3bdf3301	0.0068115
30	0xbd44af33	-0.048018645
31	0x392ef6ca	0.00016685869
32	0x3d00f8dc	0.03148733
33	0x3c1e9632	0.009679364
34	0x3da8f86a	0.08250506
35	0xbd191077	-0.037369218
36	0xbd7643e3	-0.060123336
37	0xbd0cb096	-0.034348093
38	0x3c1874ab	0.00930516
39	0xbb80c7d5	-0.003930072
40	0xbc069133	-0.008213329
41	0x3d719d80	0.058988094
42	0x3d5601f3	0.052247953
43	0x3d69ef10	0.057112753
44	0x3d2f7ac5	0.04284169
45	0xbcedb49e	-0.029016789
46	0xbd39fe9c	-0.04540883
47	0xbcc8aedb	-0.02449744
48	0xbd2e0c09	-0.042491946
49	0x3b7faa10	0.0039011277
50	0x3d855ffd	0.06512449
51	0x3d491be8	0.04909888
52	0xbd912f51	-0.07089103
53	0xbd88549c	-0.06656763
54	0xbd001703	-0.031271946
55	0xbd7d5928	-0.061852604
56	0x3d443629	0.047903214
57	0x3cb85558	0.022501633
58	0x3d6820d5	0.056671936
59	0x3c24d016	0.010059377
60	0x3d0316be	0.03200411
61	0xbc866a8e	-0.016408231
62	0xbdab2cc0	-0.08358145
63	0x3d6233ae	0.055225067
64	0x3c470cbd	0.012149033
65	0x3c12d8d2	0.008962827
66	0xbd6c62f0	-0.05771154
67	0xbbcea389	-0.006306116
68	0xbc84e5a0	-0.016222775
69	0xbd949e5a	-0.07256766
70	0xbdd8446f	-0.10559928
71	0xbc1124b1	-0.008858846
72	0xbd493bd6	-0.04912933
73	0xbd84bbdd	-0.064811446
74	0xbbd0fcda	-0.0063777985
75	0x3d314a59	0.043283794
76	0x3d526aff	0.05137157
77	0x3d048a7a	0.032358624
78	0xbd9db01d	-0.076996066
79	0xbc53209f	-0.012886195
80	0xbcc99e4d	-0.024611617
81	0x3b8211da	0.003969413
82	0x3d28df93	0.041228842
83	0x3c69fa65	0.01428089
84	0xbd0ea900	-0.03482914
85	0xbcdd0366	-0.02697916
86	0xbd6dac02	-0.058025368
87	0xbcb96aa9	-0.022633867
88	0x3c81b622	0.015833918
89	0x3d45ef35	0.04832383
90	0xbc9f766c	-0.019465648
91	0x3ce65541	0.028116824
92	0x3d141526	0.03615298
93	0xbd735493	-0.059406828
94	0xbd73a545	-0.059483785
95	0x3cab009d	0.020874316
96	0xbb3c4f11	-0.002873365
97	0x3d6d0fdb	0.05787645
98	0xbd0239cd	-0.031793404
99	0xbd3f6d77	-0.046735253
100	0x3d206aa2	0.039164193
101	0xbd93809b	-0.07202264
102	0x3a8cb1b9	0.0010734118
103	0x3d706b2d	0.05869596
104	0xbd8f97cc	-0.07011375
105	0xbd41114a	-0.04713563
106	0xbc2f92f7	-0.0107161915
107	0x3d07e39f	0.03317606
108	0x3dd7fe19	0.10546512
109	0x3d56a382	0.052402027
110	0x3d04b29e	0.032396905
111	0xbda0b824	-0.07847622
112	0xbd3fcecb	-0.046828073
113	0xbd709f88	-0.05874589
114	0x3bb55ba6	0.005534607
115	0x3d2c49d9	0.042062614
116	0x3a5dadab	0.00084563595
117	0x3aa8f424	0.0012890142
118	0xbb1ec1d5	-0.002422442
119	0x3c2f95f5	0.010716905
120	0x3d51c51a	0.05121336
121	0xbd8164d5	-0.0631806
122	0xbc94dd9d	-0.01817208
123	0xba1fc0eb	-0.00060941157
124	0xbd8cfb4e	-0.0688387
125	0x3ce1d07e	0.027565237
126	0x3cbba413	0.022905385
127	0x3d7abd20	0.06121552
128	0x3d0fcc05	0.035106678
129	0x3d8adb98	0.067801654
130	0x3d03a0a2	0.032135613
131	0x3c7ff5e1	0.015622587
132	0xbc2ad6fb	-0.010427232
133	0x3c19a176	0.009376874
134	0xbbde704d	-0.0067882896
135	0x3be27e67	0.006912041
136	0xbcb65e9e	-0.022261914
137	0xbda1d807	-0.07902532
138	0xbd470482	-0.048588283
139	0xbd920f65	-0.071318425
140	0x3c4ce8ce	0.012506677
141	0xbd653554	-0.05595906
142	0xbc3a7a39	-0.011381679
143	0xbce542cd	-0.027985955
144	0x3d19c3e6	0.03754034
145	0x3d52c4fb	0.051457386
146	0x3cc0897c	0.023503058
147	0xbd962b3b	-0.07332464
148	0x3ba7a805	0.005116465
149	0xbd202c78	-0.03910491
150	0xbd7c083b	-0.061531287
151	0xbd00aea9	-0.03141657
152	0xbd072d3f	-0.033002134
153	0x3cc949bb	0.02457129
154	0xbcec4967	-0.028843595
155	0xbceb8b63	-0.028752988
156	0xbd9bf2c8	-0.07614666
157	0x3d4fb201	0.050706867
158	0xbdb30c6a	-0.08742602
159	0xbca69e75	-0.02033923
160	0x3d1bb727	0.038016465
161	0xbd72306c	-0.05912821
162	0xbd335934	-0.043786243
163	0xbba9bdaa	-0.0051800804
164	0xbd941271	-0.0723008
165	0xbd427b8a	-0.047481097
166	0xbd9bb7ac	-0.07603392
167	0xbd1369f5	-0.03598972
168	0xbba68343	-0.0050815656
169	0xbd140504	-0.036137596
170	0xbd7e332a	-0.062060513
171	0xbd66d277	-0.05635306
172	0x3bc8b176	0.0061246706
173	0xbce127bb	-0.027484765
174	0xbd85aa16	-0.06526582
175	0xbc144fcd	-0.009052229
176	0x3d0b01d1	0.03393728
177	0xbca63ba9	-0.02029212
178	0xbd449d1f	-0.048001405
179	0xbd1e5e83	-0.038664352
180	0x3d4b1bef	0.049587186
181	0x3da6befd	0.08141897
182	0xbd0d774d	-0.034537602
183	0xbda67324	-0.0812743
184	0x3d39635d	0.045260776
185	0x3cd5be45	0.026091704
186	0x3d4dd918	0.050255865
187	0x3d6ff04b	0.05857877
188	0x3d37e7ad	0.044898678
189	0x3d1c707c	0.03819321
190	0xbc670df9	-0.014102452
191	0xbc774763	-0.0150927035
192	0x3cdb5c49	0.026777403
193	0xbc4533b0	-0.012036249
194	0x3cebad4c	0.028769158
195	0x3d6b11b5	0.057389934
196	0x380f5930	3.417692e-05
197	0x3d273aea	0.04082767
198	0xbc8f233a	-0.017472852
199	0x3d2de739	0.04245684
200	0xbd3ed804	-0.046592727
201	0x3db1c3de	0.08679937
202	0x3ba553c9	0.0050453884
203	0xbd5ef0e6	-0.054428957
204	0x3d7637f9	0.060111973
205	0xbd280112	-0.041016646
206	0xbb8397c5	-0.004015895
207	0x3c8ba465	0.017046163
208	0x3d609615	0.05483063
209	0xbcc7fbbb	-0.024412027
210	0x3d1b956b	0.037984293
211	0x3c811a37	0.01575957
212	0x3cfea322	0.031083647
213	0x3d777e2a	0.060423054
214	0x3d0650b1	0.032791797
215	0xbd3a06cf	-0.04541665
216	0xbda1b736	-0.07896273
217	0x3ce01ff8	0.027358994
218	0xbd0bb30e	-0.034106307
219	0xbd3a43e7	-0.045474913
220	0xbc73c9bc	-0.01487964
221	0x3b9d6526	0.0048033176
222	0xbd02a372	-0.031894155
223	0x3bc0a45b	0.0058789677
224	0xbd9affb8	-0.07568306
225	0xbd25150e	-0.040303282
226	0xbd0e284c	-0.0347064
227	0xbbc416ef	-0.005984179
228	0xbc4719e4	-0.012152169
229	0x3d739b65	0.059474368
230	0x3c5fb9ff	0.013655185
231	0xbccd96dc	-0.02509635
232	0xbc7d9b3e	-0.015478907
233	0x3cd641a6	0.02615435
234	0x3ca42f77	0.020042164
235	0xbc9de6e4	-0.019275136
236	0x3b2f26e8	0.002672607
237	0xbce32068	-0.027725413
238	0x3d81df17	0.06341379
239	0xbc37f0f9	-0.011226886
240	0xbc8c2646	-0.017108094
241	0xbd26afd9	-0.040695045
242	0xbd2a55a9	-0.0415856
243	0x3ca1b521	0.01973969
244	0xbd05486c	-0.03253977
245	0x3d4bc330	0.049746692
246	0x3d6b7cc0	0.057492018
247	0xbd919031	-0.071075805
248	0xbb9f72c5	-0.0048659765
249	0x3d155e29	0.03646675
250	0xbd5e598c	-0.054284617
251	0x3d6a281d	0.05716716
252	0xbcd3266e	-0.02577516
253	0x3b6e10ea	0.0036326
254	0xbd0fbe9b	-0.035093885
255	0xbd857c9b	-0.06517907

sequential/conv2d_3/BiasAdd/ReadVariableOp/resource f4 [64]
0	0xbc4dbd5f	-0.012557357
1	0x3cb6403c	0.022247426
2	0xbc90557e	-0.01761889
3	0xbc9e5a9a	-0.019330312
4	0x3d27e3ff	0.04098892
5	0x3d1d4954	0.03840001
6	0xbc856f63	-0.016288465
7	0x3ca9c624	0.020724364
8	0xbcacf69a	-0.021113683
9	0xbc028db3	-0.007968354
10	0xbc831d5e	-0.016005214
11	0x3bb45960	0.0055038184
12	0x3b75550e	0.003743473
13	0xbcdc08af	-0.02685961
14	0xbc1dfbfc	-0.009642597
15	0xbc47838e	-0.012177361
16	0x3c83cac5	0.016087899
17	0xbcc87c80	-0.024473429
18	0xbc396ad0	-0.01131697
19	0xbca3cfa3	-0.01999647
20	0x3d09216e	0.033479147
21	0xbca13362	-0.019677822
22	0xbc8fe0f4	-0.01756332
23	0xbb91a983	-0.004445256
24	0xbcb2fe0f	-0.02184966
25	0x3af11e35	0.0018395843
26	0xbcb9a710	-0.02266267
27	0xbb37ed78	-0.0028065126
28	0xbc9e3c5c	-0.019315891
29	0xbcaf669d	-0.021411235
30	0x3b325101	0.0027208927
31	0xbca63551	-0.020289095
32	0x3c68c449	0.014206954
33	0xba4c816d	-0.00078012684
34	0x3c583844	0.0131970085
35	0x3c891fef	0.01673886
36	0x3c577925	0.013151442
37	0xbcd05d20	-0.02543503
38	0xbc82fb39	-0.015988933
39	0xbcb3177e	-0.021861788
40	0x3c8a5233	0.016884899
41	0xbcc50f47	-0.024055136
42	0xbc9ea796	-0.01936702
43	0xbccc73c9	-0.024957554
44	0xbc02f375	-0.007992615
45	0xbce29366	-0.027658176
46	0xbc93be22	-0.018034998
47	0x3cee2baa	0.029073555
48	0x3cc9f157	0.024651213
49	0x3c57b091	0.013164655
50	0xbcc27b8e	-0.023740556
51	0x3c71f738	0.014768414
52	0xbc73612a	-0.014854709
53	0xbcbc40b8	-0.022980079
54	0x3c4eb41e	0.0126161855
55	0xbca3ef4a	-0.020011563
56	0x3c393390	0.011303797
57	0xbcb92555	-0.02260081
58	0x3cb1cfaa	0.021705467
59	0xbc87553e	-0.016520139
60	0xbca61c60	-0.020277202
61	0x3c45d867	0.01207552
62	0x3c73e2a9	0.014885583
63	0x3c5caead	0.01346938

sequential/conv2d_4/Conv2D f4 [64, 3, 3, 64]
0	0xbd9b25a3	-0.07575538
1	0xbd25f51b	-0.040516954
2	0x3c9498c8	0.018139258
3	0x3c293129	0.010326662
4	0x3d06980a	0.03285984
5	0xbc89a648	-0.016802922
6	0x3d80a29f	0.062810175
7	0x3d8120bd	0.063050725
8	0x3b30e2f3	0.002699074
9	0x3dd18ed8	0.102323234
10	0xbe030f74	-0.12798864
11	0xbd391e0f	-0.04519468
12	0xbd2b23a4	-0.041782036
13	0xbc8bb571	-0.017054291
14	0xbd60c889	-0.054878745
15	0x3cebbfac	0.02877792
16	0xbd885d5b	-0.06658431
17	0x3d4cb090	0.04997307
18	0xbc94f093	-0.018181121
19	0xbbbad0e3	-0.005701171
20	0x3d9f1754	0.07768121
21	0xbd370f88	-0.044692546
22	0xbc654b05	-0.013994937
23	0xbd132883	-0.035927307
24	0x3d98367c	0.07432267
25	0xb99471a1	-0.0002831342
26	0x3d18a5a8	0.037267357
27	0x3d2216e5	0.039572615
28	0x3d09e050	0.033661187
29	0xbd508f59	-0.050917957
30	0xbd18dd8b	-0.037320655
31	0xbc28eb8c	-0.010310065
32	0xbcba1ee5	-0.02271981
33	0x3dac7ff8	0.084228456
34	0x3d0fcf14	0.035109594
35	0xbbc5f9d7	-0.006041746
36	0x3c293e6d	0.010329825
37	0x3c3a5034	0.011371661
38	0x3b03e936	0.0020128018
39	0x3d659e13	0.056058954
40	0xbd2ce476	-0.042210065
41	0x3da2e1f7	0.079532556
42	0x3d64aba4	0.05582775
43	0xbd6e2af3	-0.05814643
44	0xbd67dc76	-0.056606732
45	0x3c5050a6	0.012714541
46	0x3daaff15	0.08349434
47	0xbb866dd0	-0.004102446
48	0x3ca53cf4	0.020170666
49	0x3b8d7cd5	0.0043178597
50	0xbcb4d7fe	-0.02207565
51	0xbd425e06	-0.04745295
52	0x3d61bf3e	0.055114023
53	0x3d8a83e4	0.067634374
54	0x3d59ca01	0.05317116
55	0xbd6f46af	-0.05841702
56	0xbcf4af4e	-0.029868748
57	0x3d7a3e1b	0.061094385
58	0x3d404705	0.04694273
59	0x3aa2dbe3	0.001242515
60	0x3d8aa06c	0.06768879
61	0x3d60928c	0.054827258
62	0x3d45b94c	0.048272416
63	0x3b7ac7c3	0.003826604
64	0xbc73fd6a	-0.014891962
65	0x3b9aeb18	0.0047277324
66	0x3d31dfa2	0.043426163
67	0x3d114794	0.035468653
68	0xbd7fabb9	-0.062419627
69	0x3d38ebe1	0.045146827
70	0xbc9bd333	-0.019021606
71	0x3cf78154	0.030213036
72	0xb9c1ae32	-0.00036941614
73	0x3b483ebb	0.0030554968
74	0x3caeb3ad	0.02132591
75	0x3d8719bd	0.06596706
76	0x3d5cd8ce	0.0539177
77	0xbd1e1240	-0.038591623
78	0x3d7d7567	0.06187954
79	0x3c8bcb3f	0.017064689
80	0xbd951b85	-0.072806396
81	0x3d829f64	0.063780576
82	0x3c4244ca	0.011857221
83	0xbcfed66f	-0.03110811
84	0x3c642fdb	0.013927425
85	0xbb3fdf75	-0.0029277478
86	0xbc8602fc	-0.016358845
87	0xbda259f7	-0.07927316
88	0xbd79b427	-0.060962822
89	0x3d3d5fc2	0.0462339
90	0x3abbd806	0.0014331348
91	0x3c7ab2bf	0.015301405
92	0x3d02816c	0.031861708
93	0x3b376e19	0.0027989207
94	0xbd759641	-0.059957746
95	0x3da879e8	0.08226377
96	0x3c997c00	0.018735886
97	0x3d80c8ef	0.06288325
98	0xbd8e3083	-0.069428466
99	0xbd2a9f5c	-0.041655883
100	0xbad74901	-0.0016424955
101	0xbd0194b5	-0.03163596
102	0x3c231085	0.009952669
103	0xbba1e647	-0.0049407813
104	0x3d49dc7b	0.049282532
105	0xbcab152e	-0.020884123
106	0x3d102c11	0.035198275
107	0xbccecffe	-0.025245663
108	0x3d19fbff	0.037593838
109	0x3d12c9ca	0.035836972
110	0x3d80c23b	0.062870465
111	0xbcdcb896	-0.026943486
112	0xbd1b89e7	-0.03797331
113	0x3d30cba0	0.043162942
114	0x3b958d9f	0.0045640017
115	0xbb1403fb	-0.002258538
116	0x3dc5d215	0.096592106
117	0x3d0f98a1	0.035057668
118	0xbd9ea3f2	-0.07746114
119	0xbd39b415	-0.045337755
120	0x3d4ee9de	0.050516002
121	0x3c5651ee	0.013081057
122	0x3d8ab344	0.067724735
123	0xbc9c416b	-0.019074162
124	0xbb60aadd	-0.003428153
125	0x3d819843	0.0632787
126	0xbcf304d0	-0.02966538
127	0xbd9a85cb	-0.0754505
128	0xbd846e53	-0.06466355
129	0xbd67dd51	-0.05660755
130	0x3c5fdb17	0.013663075
131	0xbd7d6cea	-0.061871447
132	0x3cfeceeb	0.031104526
133	0x3d0243b2	0.03180284
134	0xbd59f481	-0.053211693
135	0xbd30e967	-0.04319134
136	0xbc81565f	-0.015788255
137	0x3d5d4a61	0.05402601
138	0xbd16015d	-0.036622394
139	0xbd11c012	-0.035583563
140	0xbd7b467d	-0.06134652
141	0xbd738576	-0.05945345
142	0xbca35b72	-0.019941065
143	0x3d4cd8ac	0.050011322
144	0xbd03a3f3	-0.032138776
145	0x3bff4a3d	0.0077908323
146	0x3a9a1d74	0.0011758045
147	0xbd7d8a0b	-0.061899226
148	0xbd22b379	-0.03972194
149	0x3ccd23ea	0.02504154
150	0x3cef58d7	0.029217167
151	0xbdaf6606	-0.08564381
152	0x3c8248ca	0.01590385
153	0xbd5fb3a3	-0.054614674
154	0x3d2540f0	0.040345132
155	0x3d32ead0	0.043680966
156	0x3c8d59e1	0.017254772
157	0x3d393642	0.04521776
158	0x3d056d77	0.032575097
159	0x3d6c51be	0.057695143
160	0x3d6addfe	0.057340614
161	0x3cba0be0	0.02271074
162	0xbd7fdc14	-0.062465742
163	0xbd2d833e	-0.04236149
164	0xbcf51988	-0.0299194
165	0x3d179e4a	0.03701619
166	0x3daa181b	0.08305379
167	0xbd60a164	-0.054841414
168	0x3d58b55b	0.05290733
169	0xbd3d34a1	-0.04619277
170	0x39cdf8ff	0.00039286164
171	0x3d93c927	0.07216101
172	0x3d6011d6	0.05470451
173	0xbc37ffc3	-0.011230412
174	0x3d8f96c4	0.07011178
175	0x3d4f5093	0.05061395
176	0xbdb21caa	-0.086968735
177	0x3bfa7262	0.00764303
178	0xbc008c55	-0.007845958
179	0xbcc71790	-0.024303228
180	0x3d058f0b	0.03260712
181	0x3cc93c5f	0.02456492
182	0x3cd887bd	0.026431913
183	0x3c005edb	0.007835115
184	0xbc1ea09c	-0.009681847
185	0xbd630a41	-0.0554297
186	0x3d30d1ab	0.043168705
187	0x3b545005	0.0032396328
188	0xbd762906	-0.060097717
189	0x3d1bd5df	0.03804576
190	0x3d207e04	0.039182678
191	0xbc7d83dc	-0.015473332
192	0xbca90d3d	-0.020636195
193	0x3c9f7d15	0.019468823
194	0x3d4d3cf2	0.05010695
195	0xbd5c8020	-0.053833127
196	0x3b0822d7	0.002077272
197	0xbda0d51e	-0.07853149
198	0x3c3f3d32	0.011672305
199	0xbc8c3af1	-0.01711795
200	0x3bceeb4b	0.00631467
201	0xbc804027	-0.01565559
202	0xbb67263b	-0.003527059
203	0xbc94b758	-0.018153831
204	0x3daac73b	0.083387814
205	0x3d6c372a	0.057669796
206	0xbd5912f9	-0.05299661
207	0xbc89bb99	-0.016813086
208	0x3d210de1	0.039319877
209	0x3bffa7dd	0.0078019933
210	0xbda05ca2	-0.07830168
211	0x3d671d09	0.056424174
212	0x3cb4bb06	0.022061836
213	0x3c55870a	0.013032684
214	0x3d4f6aa4	0.05063881
215	0x3d00b68b	0.031424087
216	0x3d2595e9	0.04042617
217	0x3d92520c	0.071445554
218	0x3d8da2cc	0.06915817
219	0x3cfd989f	0.030956564
220	0xbd19c9fb	-0.03754614
221	0x3d7c4ac5	0.061594743
222	0x3d5b0163	0.05346812
223	0x3d9f0ba1	0.0776589
224	0x3d2eb218	0.042650312
225	0xbd2ee6a2	-0.042700417
226	0xbd1fa9df	-0.03898036
227	0xbd85cb82	-0.06532957
228	0xbd9c024b	-0.07617625
229	0x3d10cb58	0.035350174
230	0x3c8b7659	0.017024206
231	0x3d561209	0.052263293
232	0xbd84e21e	-0.06488441
233	0xbd31081f	-0.043220636
234	0x3a0953cd	0.00052386225
235	0x3bcf773f	0.006331354
236	0xbd78918c	-0.06068568
237	0x3d6f9e1c	0.058500394
238	0x3d40bf85	0.047057647
239	0x3d6d1077	0.05787703
240	0x3c2ab40f	0.010418906
241	0xbd60f328	-0.054919392
242	0xbcd37f8f	-0.02581766
243	0xbcd93d22	-0.026518408
244	0x3d5a2414	0.053257063
245	0xbca4528a	-0.020058889
246	0x3ce67af4	0.0281348
247	0xbcacb77e	-0.02108359
248	0xbcd6763a	-0.026179422
249	0x3d5aa50b	0.053380053
250	0xbd24ff66	-0.04028263
251	0x3d42688d	0.04746299
252	0xbbe4ae4f	-0.006978787
253	0x3cf12463	0.029436296
254	0x3c570807	0.013124472
255	0x3d6957c5	0.05696847

sequential/conv2d_4/BiasAdd/ReadVariableOp/resource f4 [64]
0	0xbc76cd84	-0.015063647
1	0xbc585211	-0.01320316
2	0xb8712698	-5.749482e-05
3	0xbc216591	-0.0098508755
4	0xbbd1f719	-0.00640763
5	0xbc4ac1de	-0.012375323
6	0xbbe5971f	-0.0070065404
7	0xbc10ba1c	-0.008833434
8	0xbc734206	-0.014847284
9	0xbc917854	-0.017757572
10	0x3ca53f62	0.020171825
11	0xbc0ce213	-0.008598822
12	0xbc092a11	-0.008371846
13	0x3c8148fd	0.015781874
14	0xbc1c9279	-0.009556406
15	0x3c96f456	0.018427055
16	0xbc6057c2	-0.013692798
17	0xbc174bc7	-0.009234375
18	0xbc80ea94	-0.015736856
19	0xbc8f26a5	-0.017474482
20	0xbc6aeb63	-0.014338347
21	0x3cdde087	0.027084602
22	0xbc3622e1	-0.011116714
23	0xbc1e1df7	-0.009650699
24	0xbc0a18e9	-0.008428791
25	0xbc332baa	-0.010935703
26	0xbc146406	-0.009057051
27	0x3c23fbfc	0.010008808
28	0xbc889b75	-0.01667569
29	0x3c8ca289	0.017167347
30	0xbc7210ef	-0.014774545
31	0xbc84c543	-0.016207343
32	0xbc083354	-0.008313019
33	0xbbf32a22	-0.007420794
34	0xbc8b4ef5	-0.017005423
35	0xbc077f28	-0.0082700625
36	0xbc98661e	-0.01860338
37	0x3d23ecd8	0.040020794
38	0xbc0d56bb	-0.008626635
39	0x3ca15f8d	0.019698882
40	0xbc6539bb	-0.013990815
41	0xbbcd24a2	-0.0062604705
42	0x3a1d8dec	0.0006010223
43	0xbbf7a9be	-0.0075580766
44	0xbc173004	-0.009227756
45	0x3c300bae	0.010744972
46	0xbb3a524a	-0.0028430396
47	0xbbdbbff6	-0.006706233
48	0x3c27dc46	0.010245388
49	0x3c61be6a	0.013778308
50	0xbc572178	-0.013130538
51	0x3cc0e117	0.023544831
52	0xbca32e84	-0.019919641
53	0xbbc08376	-0.0058750464
54	0x3cd4a3dd	0.025957042
55	0xbb0df726	-0.0021662205
56	0xbc9c99ef	-0.01911637
57	0xbbb04246	-0.005378994
58	0xbb86db7c	-0.00411552
59	0xbbc90f24	-0.006135838
60	0x3c515aab	0.012777965
61	0xbc4f9926	-0.012670791
62	0xbc5cec0e	-0.013484014
63	0xbc03994c	-0.008032154

sequential/conv2d_5/Conv2D f4 [64, 3, 3, 64]
0	0xbc98ac9b	-0.018636992
1	0xbd943a4d	-0.072376825
2	0xbd1f9a24	-0.03896536
3	0x3c37af5a	0.011211241
4	0x3d47d71a	0.04878912
5	0xbb9fcecf	-0.0048769484
6	0xbda25cb1	-0.07927836
7	0xbb985681	-0.004648984
8	0xb92eb466	-0.00016661137
9	0xbca88a78	-0.02057384
10	0x3d24e7d9	0.04026017
11	0xbc956688	-0.018237367
12	0xbd7037df	-0.058647033
13	0x3d97cb20	0.0741179
14	0xbd8d49a5	-0.06898812
15	0xbc3abeae	-0.011398001
16	0xbd91aca5	-0.071130075
17	0x3d5ab92c	0.05339925
18	0x3caf15ab	0.021372637
19	0xbd5a40f6	-0.053284608
20	0xbc3d4d0e	-0.011554016
21	0x3c53e1a7	0.012932218
22	0x3d27d886	0.040977977
23	0xbd35f093	-0.044418883
24	0xbd2b6fbc	-0.041854605
25	0xbab118e2	-0.0013511444
26	0x3cec19ed	0.028820956
27	0xbd497d97	-0.049192037
28	0xbcc2a4c5	-0.023760209
29	0x3d4ee739	0.05051348
30	0xbd9143a7	-0.07092982
31	0x3c1a3700	0.009412527
32	0xbc1008ca	-0.008791158
33	0xbd1bb75e	-0.03801667
34	0x3d2facec	0.04288952
35	0x3c922335	0.017839054
36	0x3c0b68f9	0.008508914
37	0x3d22d455	0.039753277
38	0xbc7ab934	-0.015302945
39	0x3cc40e3e	0.023932572
40	0x3d726757	0.059180584
41	0xbd9d937a	-0.076941445
42	0x3d983ff3	0.07434072
43	0xbcc6aaaa	-0.0242513
44	0x3b8e282a	0.004338284
45	0x3d862ae3	0.06551149
46	0xbbc7c87e	-0.0060968986
47	0x3d181f32	0.037139125
48	0xbd81e918	-0.06343287
49	0x3be4ec80	0.006986201
50	0x3b3103de	0.0027010362
51	0xbd02a7e3	-0.03189839
52	0x3d52c28d	0.05145507
53	0x3cbea617	0.023272557
54	0x3c91b1ef	0.01778504
55	0x3c05e3a5	0.0081719505
56	0xbd1b2bf1	-0.037883703
57	0xbd92a101	-0.07159615
58	0xbce1b084	-0.02754999
59	0xbd6d07fb	-0.05786894
60	0x3d9f3a64	0.07774809
61	0xbccbd39d	-0.024881179
62	0xbb2f5182	-0.0026751463
63	0xbcd07d88	-0.025450483
64	0x3d861e39	0.06548733
65	0xbcdd744d	-0.027032996
66	0x3d2fcc1c	0.042919263
67	0xbd8a52c2	-0.06754066
68	0x3d1fda16	0.039026342
69	0xbc3785fb	-0.011201377
70	0xbb277f84	-0.0025558183
71	0x3cd5f915	0.026119748
72	0x3d1e4de3	0.038648497
73	0xbd7d84a7	-0.061894085
74	0x3d6b6fc6	0.057479642
75	0xbd17381c	-0.036918744
76	0x3cff65f5	0.031176547
77	0xbd33fdc0	-0.043943167
78	0x3bbc46fe	0.0057457676
79	0x3dcc78cd	0.099839784
80	0x3cfe6da9	0.03105815
81	0x3d8eef69	0.069792576
82	0x3cbb295b	0.022846868
83	0x3d41fd36	0.04736062
84	0x3d0622f3	0.032748174
85	0x3d56395b	0.052300792
86	0xbcb05f26	-0.021529745
87	0x3d21f1d7	0.039537277
88	0x3d54445b	0.051823
89	0x3d87fe9f	0.06640362
90	0xbd56c5cf	-0.05243474
91	0x3b801be5	0.0039095753
92	0xbc8e149f	-0.017343817
93	0x3c051b6e	0.0081242155
94	0xbd90e2f7	-0.0707454
95	0xbd02f7d9	-0.031974647
96	0x3c2f2269	0.010689356
97	0xb95c26ba	-0.00020995262
98	0x3d2549f1	0.04035372
99	0x3d5a276c	0.053260252
100	0xbd6939ae	-0.056939773
101	0x3d8570ed	0.065156795
102	0x3cbdbe2b	0.023161968
103	0xbbcb76a5	-0.006209212
104	0xbd924f43	-0.07144024
105	0xbd895ca2	-0.067071214
106	0x3d262126	0.040558957
107	0x3cc3039f	0.023805438
108	0x3d05a0bb	0.032623988
109	0x3d49971e	0.049216382
110	0xbcb4a1a7	-0.022049738
111	0xbd33f502	-0.04393483
112	0x3d08f5b4	0.033437446
113	0xbd102346	-0.03518989
114	0xbd7409e7	-0.059579756
115	0xbcd9c1c6	-0.026581656
116	0xbcefdaa5	-0.029279063
117	0xbd72a860	-0.059242606
118	0xbce49481	-0.027902843
119	0x3d61a869	0.05509225
120	0x3ccc97e0	0.024974763
121	0x3d787bb8	0.060664862
122	0xbd992bfb	-0.07479092
123	0xbda774d2	-0.081765786
124	0xbd37d417	-0.04488
125	0x3d70dbf7	0.058803525
126	0x3c0df9e0	0.008665532
127	0xbcbef862	-0.023311798
128	0x3d43e0d5	0.04782184
129	0x3ca52881	0.020160915
130	0xbd6ad2a4	-0.05732979
131	0x3d16b507	0.036793735
132	0x3bfd2f5d	0.0077265934
133	0x3d584b08	0.05280593
134	0xbd277c0f	-0.040889796
135	0x3b244bbc	0.0025069555
136	0x3d7b4d6b	0.06135313
137	0xbcaccfb7	-0.02109514
138	0x3952a62e	0.00020089067
139	0xbd92246a	-0.07135852
140	0x3bb900a2	0.0056458274
141	0xbc847138	-0.016167268
142	0x3c8976f5	0.016780356
143	0xbcdf9aa5	-0.02729542
144	0x3c7ef17a	0.015560502
145	0x3d8dd9ae	0.06926285
146	0xbcc6f214	-0.024285354
147	0x3cfe1fab	0.03102096
148	0x3d3834b4	0.044972137
149	0x3d0e384e	0.034721665
150	0x3cda033c	0.02661287
151	0xbda8882f	-0.082291
152	0xbc311d65	-0.010810231
153	0xbc502be1	-0.012705774
154	0x3cc8466b	0.02444764
155	0xbcffd205	-0.031228075
156	0xbcf01e88	-0.029311433
157	0x3db97f9d	0.090575434
158	0x3d5b0e2a	0.053480305
159	0x3ccd2dfc	0.025046341
160	0x3d3cce41	0.046095137
161	0xbcb61879	-0.022228466
162	0xbdbe0778	-0.09278768
163	0xbd45eddf	-0.048322555
164	0x3bd7d200	0.0065863132
165	0x3d9c65c1	0.076365955
166	0x3cd8ecaf	0.026480047
167	0x3da5c78a	0.080947
168	0x3c891b75	0.016736725
169	0x3c3ad3e4	0.011403058
170	0x3c6681aa	0.014069
171	0x3b4594af	0.0030148437
172	0xbd569cf6	-0.052395783
173	0xbb2e9743	-0.0026640452
174	0xbdb07c84	-0.086174995
175	0xbd5eb305	-0.054369945
176	0xbd92db6f	-0.0717076
177	0x3d10e693	0.035376143
178	0x3bad6f77	0.0052928287
179	0x3db637e9	0.08897383
180	0xbd01f23f	-0.031725165
181	0xbb365b3c	-0.0027825376
182	0x3d17204d	0.03689604
183	0x3bee6cd5	0.0072761574
184	0x3cf11599	0.029429244
185	0x3a955cbd	0.0011395436
186	0x3cc6ba96	0.024258893
187	0xbc8baa75	-0.017049054
188	0xbcba4f6b	-0.022742948
189	0xbcdb3c83	-0.026762253
190	0xbd54bf13	-0.051940035
191	0xbbe64d88	-0.0070282854
192	0x3d959dce	0.073054895
193	0x3c6a39f9	0.014296048
194	0xbccfa82d	-0.025348747
195	0xbd0e25fd	-0.034704197
196	0x3d829a33	0.063770674
197	0x3d7e19a7	0.062036183
198	0x3d3c1c58	0.04592547
199	0x3d11c2f7	0.035586324
200	0xbd97ab7f	-0.07405757
201	0xbca94909	-0.020664709
202	0x3c4f69a0	0.01265946
203	0x3ca3dde0	0.02000326
204	0x3d4672bc	0.048449263
205	0xbd61bac2	-0.055109747
206	0xbce45e19	-0.0278769
207	0x3d861e46	0.06548743
208	0x3d025b00	0.031825066
209	0xbd822c0a	-0.06356056
210	0x3d5f2543	0.054478895
211	0xbd816e93	-0.063199185
212	0xbd17ed97	-0.037091818
213	0x3d92df26	0.071714684
214	0x3ca55659	0.020182775
215	0x3d2d668c	0.042334124
216	0xbd06dc72	-0.032925077
217	0xbd6377a5	-0.055534024
218	0xbd1d3620	-0.038381696
219	0x3d1f985d	0.038963664
220	0x3c9a70cc	0.018852614
221	0x3c51d850	0.012807921
222	0xbd5c9575	-0.05385347
223	0x3d82d70e	0.06388675
224	0x3d137b58	0.0360063
225	0xbcdf6978	-0.027271971
226	0x3a8feca4	0.0010980559
227	0x3d7f1a21	0.062280778
228	0x3d3083c0	0.043094397
229	0x3da406f1	0.080091365
230	0x3d8555d5	0.06510512
231	0xbd4cb15b	-0.049973827
232	0x3d6f7063	0.05845679
233	0xbc274c12	-0.010211008
234	0x3d873df3	0.06603613
235	0xbd818525	-0.063242234
236	0xbc9237d7	-0.017848892
237	0x3c2d38d3	0.01057263
238	0x3d518f84	0.051162258
239	0xbd8e59ef	-0.06950747
240	0xbbd25594	-0.006418893
241	0xbd63994f	-0.05556613
242	0xbdbd7a17	-0.092518024
243	0xbd28d4ad	-0.04121845
244	0x3d8f0702	0.069837585
245	0xbc21c548	-0.009873696
246	0xbb996adb	-0.0046819276
247	0xbc523a6f	-0.0128313145
248	0xbde93fc4	-0.113891155
249	0xbcabe222	-0.020981852
250	0x3d3c57a7	0.04598203
251	0x3bbac9eb	0.00570034
252	0x3dad0356	0.08447902
253	0x3c0371c3	0.008022728
254	0x3c82fd78	0.015990004
255	0x3ce16294	0.027512826

sequential/conv2d_5/BiasAdd/ReadVariableOp/resource f4 [64]
0	0x3c3583d7	0.011078796
1	0x3caa5e13	0.020796811
2	0xbc0d5ae0	-0.008627623
3	0xbc472f7b	-0.012157316
4	0xbcbb42b5	-0.022858957
5	0xbc4da45f	-0.012551396
6	0xbc455fc8	-0.012046762
7	0xbc0f2bbf	-0.008738457
8	0xbc1949ee	-0.009356005
9	0xbbd32979	-0.006444153
10	0xbc49bb81	-0.012312771
11	0xbc12d3bb	-0.008961613
12	0xbc9657d0	-0.01835242
13	0xbca0b775	-0.01961873
14	0x3bba6883	0.0056887283
15	0xbc364559	-0.011124932
16	0xbc63adaf	-0.01389639
17	0xbc431a65	-0.011908148
18	0xbc0ae369	-0.00847707
19	0xbc346ca0	-0.011012226
20	0xbc56c58b	-0.013108621
21	0xbc47fe0b	-0.012206565
22	0xbbe99bd8	-0.0071291737
23	0xbc269a69	-0.01016865
24	0xbc31cb71	-0.010851727
25	0xbc08f870	-0.008360013
26	0xbc0acee1	-0.008472175
27	0xbc71aee9	-0.0147511745
28	0xbbd7309b	-0.0065670735
29	0xbc770e00	-0.015079021
30	0xbc783d63	-0.0151513545
31	0xbc753891	-0.0149671
32	0xbc5f9576	-0.013646474
33	0xbc83138b	-0.01600053
34	0xbc3a27f2	-0.011362063
35	0xbc1aca91	-0.00944771
36	0xbbcee052	-0.006313362
37	0x3c8af9bb	0.016964784
38	0x3c941203	0.018074995
39	0xbc4803e0	-0.012207955
40	0xbc4deb8c	-0.012568366
41	0xbbfbc698	-0.0076835863
42	0x3c80a535	0.015703777
43	0x3cee0cc9	0.02905883
44	0xbb758f93	-0.003746961
45	0x3d461920	0.048363805
46	0xbc203c50	-0.009780005
47	0xbc5ae5d5	-0.01336046
48	0xbc9a5142	-0.018837575
49	0xbc4ac359	-0.012375676
50	0xbc1fdab8	-0.009756736
51	0xbc8463dd	-0.0161609
52	0xbc1413e6	-0.009037947
53	0x3c4b547f	0.012410282
54	0xbc5096ca	-0.012731263
55	0xbc1547c6	-0.00911135
56	0xbc1838d4	-0.009290893
57	0xbbe430d8	-0.0069638304
58	0xbc3611e6	-0.011112666
59	0xbc8ce8e0	-0.017200887
60	0xbc81a937	-0.015827758
61	0xbc3fd38a	-0.01170815
62	0xbca68e57	-0.020331545
63	0xbc06d131	-0.008228586
