face_edgetpu.tflite (tflite, 611520 bytes, 14 tensors)

sequential/conv2d/Conv2D f4 [16, 5, 5, 3]
0.097694606 -0.013907356 -0.110300206 -0.08461193 0.05690966 -0.08161283 0.075522706 -0.04569526
-0.07024885 -0.055529073 0.056825597 0.060133826 0.08425444 -0.0037170297 0.048534818 0.08146244
-0.05337941 0.0023962795 -0.01764467 0.0074316394 -0.0457837 -0.05169691 -0.044651143 0.032581076
-0.019606933 0.060636673 0.10882214 0.02901683 0.03936722 0.0503141 0.076006636 -0.06361724
-0.08139377 -0.11530151 0.02221808 -0.111093 -0.034101076 -0.09503201 -0.016929714 0.10989795
0.0009661205 -0.10810744 -0.09308336 0.0794164 0.07026977 -0.037304163 -0.035098992 -0.043878905
-0.11040551 0.09996083 -0.105711706 -0.016878562 -0.07930244 -0.113220744 0.08336815 -0.04002021
0.06277321 0.106917076 0.019821087 -0.107779145 -0.10790004 0.02553722 0.09572183 -0.052707724
-0.011065413 -0.021579925 0.0042177523 -0.07230415 -0.038775448 -0.07108033 0.05735954 -0.011261198
-0.10026812 -0.04782018 0.00022963235 -0.051239766 0.09733162 -0.029443474 0.092490055 0.12283213
0.015179479 -0.03979036 0.008300366 -0.050142832 -0.067997225 0.12056538 0.102085374 0.019938126
0.071547106 0.027369896 -0.08454835 -0.061837867 -0.0011285427 0.09956698 -0.059001084 0.10220152
0.015773788 0.012084777 -0.018361494 0.060357835 -0.045106478 0.11461985 0.0398825 0.024288343
-0.050266955 0.09071899 0.05252017 0.02842784 0.11398414 0.02433481 -0.04296885 0.031420834
0.069865115 0.11715619 -0.06320991 0.039317183 0.07240123 0.12075887 -0.063965805 0.073522985
0.09905518 -0.02507104 0.04654493 -0.025038589 -0.039975703 0.04584175 0.0532682 0.0711168
0.0052010682 0.044273727 0.0684838 0.10299926 0.11322723 0.08632384 0.007894795 -0.04746463
-0.09433759 -0.09843635 -0.080887266 0.08510274 0.07681127 -0.04452357 -0.08140299 0.072089575
-0.06884009 -0.08219255 0.0024925272 0.09025314 0.05323678 0.038016383 -0.055891193 0.051080115
0.0856229 0.004260142 -0.07234235 -0.027114544 0.06129665 -0.016472237 -0.052384 0.026094735
-0.10645615 0.07401599 0.06534817 -0.09073963 0.09452966 -0.016909448 0.11639662 0.008725753
0.037720952 -0.01921207 0.02619436 0.050046336 -0.024566181 -0.067795835 0.06797677 -0.07230105
0.0021990007 -0.045622412 0.07112713 -0.048967432 0.08592065 0.04455549 0.0718488 -0.11348842
-0.10342178 -0.060469076 -0.09251296 0.08119128 0.065235555 0.07521733 0.09019674 0.03471441
-0.10435742 -0.06053542 -0.056063388 0.018055463 0.028255852 -0.031202424 -0.058772374 -0.0017935772
-0.111572824 0.0745391 0.027361799 -0.03025876 -0.03849999 0.02384037 0.07759245 0.03934233
0.0822608 0.08493423 -0.1032844 0.049019314 0.0740826 -0.05297251 -0.012731964 -0.006085851
-0.0950125 0.08062535 -0.05541616 0.036211587 0.019125875 -0.056796078 -0.036284156 -0.052402988
-0.067733064 0.045837734 0.09528128 0.004339001 -0.024200618 -0.0301015 0.040603053 0.020858333
-0.10089157 -0.09440217 -0.05426615 -0.08324785 -0.09944185 0.04278796 -0.06182487 0.091041125
0.091156036 -0.020980107 -0.0042967913 -0.08448781 0.09273966 0.098560065 -0.078351066 -0.009028941
0.10165277 -0.04052644 0.058437314 0.018120542 -0.057006437 -0.0049569635 -0.06839956 -0.10316082
00000000: 1c14 c83d aedb 63bc 13e5 e1bd 0549 adbd
00000010: 1b1a 693d a124 a7bd a6ab 9a3d f42a 3bbd
00000020: a1de 8fbd 7472 63bd f5c1 683d e34e 763d
00000030: 988d ac3d 6999 73bb 72cc 463d c8d5 a63d
00000040: 5ea4 5abd e60a 1d3b 8e8b 90bc 1c85 f33b
00000050: b087 3bbd 24c0 53bd 1ee4 36bd bc73 053d
00000060: b89e a0bc 295e 783d 24de de3d b4b4 ed3c
00000070: 863f 213d 2816 4e3d 5ea9 9b3d c149 82bd
00000080: c7b1 a6bd 3323 ecbd b102 b63c ba84 e3bd
00000090: 92ad 0bbd 24a0 c2bd 2fb0 8abc 2d12 e13d
000000a0: 4043 7d3a 6f67 ddbd 7da2 bebd 11a5 a23d
000000b0: 99e9 8f3d 40cc 18bd f6c3 0fbd 5eba 33bd
000000c0: 491c e2bd 43b8 cc3d 617f d8bd e944 8abc
000000d0: 5169 a2bd 47e0 e7bd ecbc aa3d 3bec 23bd
000000e0: 3e8f 803d 57f7 da3d d55f a23c 50bb dcbd
000000f0: b2fa dcbd 6f33 d13c cf09 c43d 0ee4 57bd
00000100: b54b 35bc 62c8 b0bc 1235 8a3b 3314 94bd
00000110: 01d3 1ebd 9092 91bd d6f1 6a3d e380 38bc
00000120: 5f59 cdbd 18df 43bd 77c9 7039 cae0 51bd
00000130: cd55 c73d 7133 f1bc 6d6b bd3d 698f fb3d
00000140: 59b3 783c 37fb 22bd 42fe 073c 9262 4dbd
00000150: 2142 8bbd fbea f63d 2312 d13d 4855 a33c
00000160: 4a87 923d d536 e03c af27 adbd b449 7dbd
00000170: 9ceb 93ba c6e9 cb3d 1fab 71bd 084f d13d
00000180: 0838 813c 3aff 453c d86a 96bc c739 773d
00000190: 92c1 38bd d0bd ea3d d55b 233d 59f8 c63c
000001a0: b9e4 4dbd e1ca b93d 641f 573d 80e1 e83c
000001b0: 8470 e93d cc59 c73c 1b00 30bd 22b3 003d
000001c0: 7115 8f3d 96ef ef3d 3374 81bd 0e0b 213d
000001d0: 1947 943d 6d50 f73d 8100 83bd 3893 963d
000001e0: 71dd ca3d c861 cdbc e6a5 3e3d ba1d cdbc
000001f0: 90bd 23bd 8fc4 3b3d c22f 5a3d afa5 913d
00000200: b96d aa3b 5e58 353d 3c41 8c3d 47f1 d23d
00000210: aee3 e73d 8eca b03d 2c59 013c 466a 42bd
00000220: 1134 c1bd ff98 c9bd 39a8 a5bd 584a ae3d
00000230: 3a4f 9d3d 595e 36bd 9cb6 a6bd b3a3 933d
00000240: 08fc 8cbd 9154 a8bd ab59 233b a3d6 b83d
00000250: cf0e 5a3d 11b7 1b3d 2aee 64bd 6239 513d
00000260: 0f5b af3d a998 8b3b 3a28 94bd 521f debc
00000270: 3212 7b3d c9f0 86bc 9b90 56bd a0c4 d53c
00000280: af05 dabd b295 973d 43d5 853d b3d5 b9bd
00000290: c498 c13d af85 8abc 5a61 ee3d 76f6 0e3c
000002a0: 4981 1a3d a262 9dbc 8e95 d63c 63fd 4c3d
000002b0: 043f c9bc 8bd8 8abd 6837 8b3d 9312 94bd
000002c0: 1c1d 103b 91de 3abd 1aab 913d 1392 48bd
000002d0: 2af7 af3d d17f 363d 7725 933d 9e6c e8bd
000002e0: ccce d3bd 6cae 77bd 6f77 bdbd 9d47 a63d
000002f0: 389a 853d 8b0b 9a3d 12b9 b83d b230 0e3d
00000300: 58b9 d5bd fdf3 77bd b9a2 65bd 0de9 933c
00000310: d178 e73c 3a9c ffbc 4dbb 70bd 7716 ebba
00000320: 4b80 e4bd f5a7 983d da25 e03c 38e1 f7bc
00000330: 2ab2 1dbd e14c c33c cae8 9e3d 6c25 213d
00000340: 5a78 a83d fff1 ad3d c686 d3bd 7ac8 483d
00000350: 9eb8 973d b4f9 58bd ba99 50bc d26b c7bb
00000360: ea95 c2bd e71e a53d 0efc 62bd 9a52 143d
00000370: dead 9c3c 01a3 68bd b29e 14bd 84a4 56bd
00000380: a2b7 8abd 59c0 3b3d d522 c33d 2e2e 8e3b
00000390: 6040 c6bc 6c97 f6bc 634f 263d 18df aa3c
000003a0: 3da0 cebd ed55 c1bd 2f46 5ebd d97d aabd
000003b0: 2ba8 cbbd 6e42 2f3d 133c 7dbd c573 ba3d
000003c0: 04b0 ba3d 79de abbc 19cc 8cbb f207 adbd
000003d0: 4aee bd3d dcd9 c93d 8676 a0bd 20ee 13bc
000003e0: 542f d03d 0dff 25bd f75b 6f3d 8871 943c
000003f0: 957f 69bd 066e a2bb 1215 8cbd fb45 d3bd

sequential/conv2d/BiasAdd/ReadVariableOp/resource f4 [16]
0.031490754 -0.013316267 0.064648904 -0.008288661 -0.0126152905 0.030091602 0.03123326 0.030195357
-0.007835013 0.013444238 -0.004643306 0.0073935506 0.01496376 -0.018239861 -0.008992216 -0.021173624
00000000: 73fc 003d 792c 5abc a566 843d 2acd 07bc
00000010: 5db0 4ebc aa82 f63c e5dc ff3c 415c f73c
00000020: 6d5e 00bc 3945 5c3c e026 98bb 9945 f23b
00000030: 8f2a 753c c36b 95bc 1654 13bc 4f74 adbc

sequential/conv2d_1/Conv2D f4 [32, 3, 3, 16]
-0.016066825 0.040158752 0.027589345 -0.06021023 -0.019854845 -0.040492836 0.14018062 -0.00018774912
0.10293853 0.07308486 -0.11077221 0.14703831 -0.019610275 -0.101906225 0.08376682 0.033842962
-0.10256305 0.05377334 -0.08009748 -0.026144592 -0.00067241525 -0.116735324 0.18931152 0.07509206
0.03103481 -0.009476599 0.021475933 0.09428663 0.05196803 0.10403831 -0.018962085 0.122109585
-0.100172825 -0.031896375 -0.03821183 -0.07215795 0.03863942 -0.009679458 0.16510959 0.07545247
0.10728768 0.100787915 -0.025114108 0.10951345 -0.08276593 0.069071345 0.009521207 0.07792492
-0.085531674 0.018769808 -0.053152483 0.045425966 0.090591684 0.017762762 0.089440174 -0.016440755
0.049020294 0.038737454 0.04421402 0.09085226 -0.07596109 -0.09366402 -0.116571486 0.03415067
0.10371824 -0.0046184207 -0.073164135 -0.051754784 -0.023468474 0.052799273 0.06791011 0.027948223
0.10049266 0.02418847 0.056535494 0.08084009 -0.081923075 0.0332428 0.07405516 -0.05303012
0.04464067 -0.05763185 0.055951055 0.096292496 0.06788743 0.09999474 0.18294598 -0.0790743
0.10515841 0.0925943 0.06566924 -0.03213709 -0.09253675 0.09559699 -0.0039429353 0.06745147
0.027968496 0.022328267 0.11812117 -0.025090434 -0.0035585945 -0.07325638 0.14484687 -0.14973901
0.008359155 -0.102633536 0.07642186 0.08383919 -0.06821025 0.016794842 -0.0072490964 0.055203114
0.0019825355 -0.049333815 0.068271644 -0.10165061 -0.017614346 -0.031347632 0.040222142 -0.032311708
-0.09963482 0.09713529 -0.105196916 0.14871033 0.008057902 -0.10966401 0.0821304 -0.053296626
-0.034972616 0.0068327147 -0.046983805 0.055050384 0.080341496 0.045136426 -0.0012321774 -0.050411332
0.03911895 -0.06615118 -0.123194486 0.06393421 -0.12887712 -0.025818156 0.021933084 0.0671508
0.094241515 -0.1057973 0.10885255 -0.11223717 0.015617357 0.0731402 0.114181414 -0.09505452
0.05863812 -0.083987914 -0.0723762 0.023908984 0.03451604 -0.100279026 0.041916974 0.0476439
-0.11309398 0.030990573 0.11381834 0.02432496 0.018010955 0.15509407 0.1190098 -0.009786305
-0.048484147 0.0072777807 0.11219549 0.048719335 0.03175741 -0.09022943 0.085990205 0.047419854
-0.10970823 -0.02758779 0.047316063 -0.065289296 -0.04506799 -0.008380157 0.08229162 -0.05693741
0.033353705 0.07585662 0.037383694 -0.02603721 -0.059208766 -0.08335563 0.082396336 -0.10285371
0.07781044 -0.10201405 0.009738141 0.038237356 -0.12385691 0.09316599 0.13569613 0.06441221
0.08667006 -0.06948484 -0.028604874 0.12000048 -0.01645699 0.07960219 -0.035895906 0.051789578
0.001747719 0.0773288 -0.074690975 0.0885249 0.06720269 0.0015354244 0.13905519 0.077206746
0.05702388 0.070156716 -0.0781038 0.0053288853 -0.017253488 -0.05581755 0.11167895 0.054459695
-0.10271385 -0.08443346 0.121827684 -0.027042748 0.033938326 0.14820543 0.036771763 -0.030473491
-0.005880674 0.061738122 -0.07359526 0.069084324 0.09238238 -0.09330505 0.07745126 -0.074605264
0.0013536647 -0.0716433 0.051840607 0.06953252 0.08000487 0.1373233 0.008608815 0.017915377
0.0012883616 0.06423626 0.122287996 -0.016181357 0.10679844 0.060649805 0.0076386407 0.0069772596
00000000: 939e 83bc 817d 243d 0d03 e23c 019f 76bd
00000010: a1a6 a2bc d1db 25bd 828b 0f3e 85de 44b9
00000020: 70d1 d23d 84ad 953d 8adc e2bd 3691 163e
00000030: baa5 a0bc 36b4 d0bd f08d ab3d eb9e 0a3d
00000040: 940c d2bd 6f41 5c3d 260a a4bd 2f2d d6bc
00000050: 0645 30ba ee12 efbd e1da 413e dec9 993d
00000060: b73c fe3c bd43 1bbc 4cee af3c 5919 c13d
00000070: 6edc 543d 0a12 d53d 6056 9bbc 9714 fa3d
00000080: 6927 cdbd c6a5 02bd 0284 1cbd 8cc7 93bd
00000090: 5e44 1e3d 9796 1ebc 7d12 293e d386 9a3d
000000a0: a5b9 db3d e569 ce3d 1abc cdbc 9648 e03d
000000b0: 2f81 a9bd 4775 8d3d d6fe 1b3c 1a97 9f3d
000000c0: 3b2b afbd 24c3 993c 6bb6 59bd 9410 3a3d
000000d0: 2288 b93d 3683 913c 692c b73d c3ae 86bc
000000e0: 81c9 483d 2aab 1e3d c319 353d c010 ba3d
000000f0: 7d91 9bbd ecd2 bfbd 08bd eebd 93e1 0b3d
00000100: 3b6a d43d 1f56 97bb 14d7 95bd d3fc 53bd
00000110: f540 c0bc 0d44 583d 7514 8b3d acf3 e43c
00000120: 19cf cd3d e626 c63c c391 673d 7d8f a53d
00000130: 49c7 a7bd 9a29 083d 3baa 973d 1c36 59bd
00000140: 23d9 363d 600f 6cbd ef2c 653d 0035 c53d
00000150: 9108 8b3d 0bca cc3d 3156 3b3e b5f1 a1bd
00000160: 4b5d d73d 15a2 bd3d 987d 863d 2ea2 03bd
00000170: e883 bdbd 5bc8 c33d bd33 81bb ff23 8a3d
00000180: 301e e53c c5e9 b63c 83e9 f13d 748a cdbc
00000190: 4f37 69bb 7107 96bd bd52 143e 2f55 19be
000001a0: d6f4 083c 8831 d2bd 1083 9c3d e2b3 ab3d
000001b0: d1b1 8bbd 5695 893c d489 edbb a91c 623d
000001c0: 6ded 013b 4112 4abd 01d2 8b3d 322e d0bd
000001d0: f64b 90bc 6066 00bd f9bf 243d 4859 04bd
000001e0: 570d ccbd deee c63d 7b71 d7bd 8547 183e
000001f0: 4a05 043c 8697 e0bd fc33 a83d 904d 5abd
00000200: 723f 0fbd f7e4 df3b 1772 40bd 837c 613d
00000210: 158a a43d f9e0 383d 0381 a1ba 1d7c 4ebd
00000220: 313b 203d 457a 87bd 644d fcbd f0ef 823d
00000230: 5df8 03be 9980 d3bc 03ad b33c 5c86 893d
00000240: b201 c13d 41ac d8bd 16ee de3d 9adc e5bd
00000250: f1df 7f3c 87ca 953d f2d7 e93d f2ab c2bd
00000260: 862e 703d db01 acbd f939 94bd c6dc c33c
00000270: b160 0d3d 175f cdbd 22b1 2b3d 4026 433d
00000280: d19d e7bd f1df fd3c 9719 e93d 2345 c73c
00000290: b68b 933c fbd0 1e3e 69bb f33d bd56 20bc
000002a0: 5097 46bd 737a ee3b c0c6 e53d ed8d 473d
000002b0: 0f14 023d 35ca b8bd a21b b03d 523b 423d
000002c0: b5ae e0bd caff e1bc 7dce 413d 65b6 85bd
000002d0: 3699 38bd ed4c 09bc 8288 a83d 3437 69bd
000002e0: e59d 083d b75a 9b3d a51f 193d fd4b d5bc
000002f0: e484 72bd 5bb6 aabd 69bf a83d f7a4 d2bd
00000300: 145b 9f3d beec d0bd b98c 1f3c c69e 1c3d
00000310: b1a8 fdbd d0cd be3d edf3 0a3e 8cea 833d
00000320: 1380 b13d 114e 8ebd c554 eabc d0c2 f53d
00000330: cfd0 86bc 7906 a33d 9607 13bd 4f21 543d
00000340: b813 e53a 905e 9e3d 95f7 98bd 8b4c b53d
00000350: 90a1 893d 4b40 c93a 7c64 0e3e 921e 9e3d
00000360: df91 693d 53ae 8f3d e3f4 9fbd ee9d ae3b
00000370: 3057 8dbc f1a0 64bd efb7 e43d 2111 5f3d
00000380: a45b d2bd 73eb acbd cb80 f93d c188 ddbc
00000390: ea02 0b3d 2ac3 173e fd9d 163d 8ba3 f9bc
000003a0: abb2 c0bb 1de1 7c3d 1db9 96bd 157c 8d3d
000003b0: f932 bd3d b816 bfbd c49e 9e3d a5ca 98bd
000003c0: 736d b13a b9b9 92bd d156 543d 1167 8e3d
000003d0: 98d9 a33d 7b9e 0c3e fd0b 0d3c 45c3 923c
000003e0: 3ede a83a 4d8e 833d 2172 fa3d c48e 84bc
000003f0: 24b9 da3d ee6b 783d 904d fa3b 7fa1 e43b

sequential/conv2d_1/BiasAdd/ReadVariableOp/resource f4 [32]
-0.026126886 -0.013834397 0.022979306 -0.019092634 0.008772011 0.016953627 -0.021015452 -0.018022738
-0.0072569125 0.011721577 -0.020479202 0.0110262 -0.028757455 -0.0006419115 -0.0032977136 -0.027089143
0.00076504075 -0.01725008 -0.0133314775 -0.026011528 -0.012787639 0.02526335 0.007813203 0.0023645875
0.012356723 -0.018048279 0.011595343 0.0038995722 -0.02285751 -0.0021047876 0.024948742 -0.0034235874
00000000: 0d08 d6bc aba9 62bc 193f bc3c 2868 9cbc
00000010: 7bb8 0f3c 55e2 8a3c 9928 acbc 6ca4 93bc
00000020: 65cb edbb db0b 403c 00c4 a7bc 3ca7 343c
00000030: c194 ebbc f445 28ba 741e 58bb 0dea ddbc
00000040: 048d 483a 0a50 8dbc 456c 5abc 2116 d5bc
00000050: 3f83 51bc 16f5 ce3c f302 003c 32f7 1a3b
00000060: da73 4a3c fcd9 93bc 65fa 3d3c f78f 7f3b
00000070: ac3f bbbc 7af0 09bb 4e61 cc3c 445e 60bb

sequential/conv2d_2/Conv2D f4 [64, 3, 3, 32]
0.0717312 0.0034914168 -0.10933949 -0.0042198678 -0.06952647 -0.032521397 -0.04569889 -0.014824875
0.08046714 0.036296587 0.0493541 0.07972751 -0.028720789 -0.03939791 0.058895614 -0.06356632
0.05750122 0.066419415 0.041425973 0.04555757 -0.104776084 -0.10288142 -0.051728502 0.031708665
0.0757669 0.02044051 0.01943446 0.07714755 0.082977615 0.010450979 0.054923374 -0.037721764
-0.054535802 0.02654347 -0.1395 0.06371574 -0.004723656 0.047015205 0.04693042 -0.05047973
0.05908823 -0.07890051 -0.029850358 0.033961125 0.054316696 -0.0015543491 -0.027281286 0.018720258
-0.04467416 0.022618061 0.02766792 0.051228154 -0.085633114 -0.049784575 0.03834074 -0.0677545
-0.002481774 -0.00317651 0.00015826015 0.0148570025 -0.010857741 0.03958996 0.033453573 0.046662055
-0.018394621 -0.091247484 -0.028344281 0.08156075 0.0014986687 0.019249933 -0.0021047604 -0.04359151
-0.07045711 -0.05676051 0.05173051 0.07461545 0.057029538 0.05445693 0.030192964 0.08389626
-0.080817476 -0.023387529 -0.010828135 -0.09249531 -0.024733853 -0.079101734 -0.035714276 0.04920564
0.047410414 -0.024392283 0.025480166 -0.002546908 0.004717921 -0.049825978 0.08397307 -0.05896924
-0.014741617 0.0389395 -0.020285493 0.07130123 0.056975245 0.04580362 0.055153925 -0.027694358
-0.07050695 -0.052329328 0.0019976215 -0.0076941997 0.018982213 0.0635738 0.024086153 0.0044817748
-0.054822464 0.014105715 0.07992325 0.06388538 -0.051721465 -0.057727262 0.0007854311 -0.014418267
-0.04868044 -0.03350498 0.07404687 0.036647372 0.0064069526 0.0051261755 -0.005371305 -0.02582328
0.06671227 0.035581864 -0.011585395 0.06937244 -0.016249664 0.031422067 0.02479967 0.071055435
-0.011343789 0.02078567 -0.051859688 0.09890903 0.08130847 -0.012013813 -0.05401145 0.034456603
0.029457856 -0.027517986 -0.011428062 -0.08398638 0.026355118 -0.05129421 0.035850085 0.04140756
-0.028049486 0.018278928 0.05467555 0.02194287 0.05911987 0.06710269 0.0059084403 -0.019586092
-0.0015732609 0.00196374 -0.0030115773 -0.05079618 -0.005946731 0.026398512 0.023127863 0.060650196
0.055206638 0.062263615 -0.0085026575 0.06368691 -0.040062636 0.010587633 0.048657805 0.00066648144
-0.07971645 -0.032081705 -0.054500416 0.055020273 -0.048007384 0.04658615 -0.07133123 0.07201074
0.049939502 0.07758535 0.04639188 -0.009531978 0.031865988 0.049749672 -0.03820882 -0.09058415
0.04277577 -0.010016989 -0.070660695 0.04080664 -0.084569395 0.027970748 0.026580485 -0.008484149
-0.06954702 -0.014132001 0.05835307 -0.032675456 -0.0008841139 -0.0675779 0.066685125 -0.04932202
-0.028830487 -0.015398101 0.049740627 0.06702526 -0.013347348 -0.012971412 0.000471978 0.0016591236
0.057066057 0.032194562 0.05276898 -0.0037633544 0.019743467 0.025179386 -0.03335799 0.035371356
0.06319062 0.051571004 -0.03636516 0.051200774 -0.024809647 -0.07875356 -0.0026434527 0.0525481
-0.037268914 0.052602585 -0.04481238 0.06637444 0.03613368 -0.04334359 -0.07832128 0.030748324
0.05471563 -0.0397781 0.043671638 -0.08751484 -0.0051959297 -0.101730816 0.011708822 0.006655852
-0.009531739 0.022061292 0.09135172 -0.06784146 0.002558181 -0.003956555 -0.07867218 -0.11832339
00000000: cfe7 923d 41d0 643b 62ed dfbd d146 8abb
00000010: e563 8ebd 2835 05bd c22e 3bbd 08e4 72bc
00000020: f5cb a43d bbab 143d 8627 4a3d 2d48 a33d
00000030: dc47 ebbc b45f 21bd 873c 713d 0f2f 82bd
00000040: 6686 6b3d e706 883d 48ae 293d 939a 3a3d
00000050: d894 d6bd 7eb3 d2bd 44e1 53bd f2e0 013d
00000060: ad2b 9b3d db72 a73c 0435 9f3c 89ff 9d3d
00000070: 2bf0 a93d 953a 2b3c 55f7 603d 2382 1abd
00000080: ef60 5fbd b171 d93c 17d9 0ebe 667d 823d
00000090: e6c8 9abb 0493 403d 1d3a 403d d5c3 4ebd
000000a0: 8006 723d 9796 a1bd bd88 f4bc d21a 0b3d
000000b0: 2f7b 5e3d 4dbb cbba 017d dfbc 3a5b 993c
000000c0: 41fc 36bd 8349 b93c d5a7 e23c 9dd4 513d
000000d0: 6a60 afbd e9ea 4bbd 2e0b 1d3d dfc2 8abd
000000e0: 42a5 22bb ff2c 50bb a3f2 2539 c96a 733c
000000f0: abe4 31bc 1529 223d 9d06 093d b620 3f3d
00000100: 51b0 96bc f6df babd 4432 e8bc 5309 a73d
00000110: fa6e c43a 09b2 9d3c 05f0 09bb 038d 32bd
00000120: d14b 90bd b57d 68bd 5fe3 533d fccf 983d
00000130: ce97 693d 3b0e 5f3d 3c57 f73c cdd1 ab3d
00000140: a283 a5bd 3497 bfbc 7d68 31bc 2e6e bdbd
00000150: a69e cabc 1700 a2bd 2249 12bd da8b 493d
00000160: 6c31 423d 53d2 c7bc c8bb d03c 07ea 26bb
00000170: ca98 9a3b 5316 4cbd 13fa ab3d bb89 71bd
00000180: d386 71bc 067f 1f3d c32d a6bc 6106 923d
00000190: e05e 693d 949c 3b3d 15e9 613d 47df e2bc
000001a0: f365 90bd 4757 56bd 87ea 023b a01f fcbb
000001b0: 9680 9b3c fb32 823d 5350 c53c dadb 923b
000001c0: 858d 60bd a81b 673c cdae a33d 57d6 823d
000001d0: e3d9 53bd 6c73 6cbd 64e5 4d3a 983a 6cbc
000001e0: 2465 47bd 853c 09bd e3a5 973d 8e1b 163d
000001f0: 6af1 d13b 7af9 a73b c601 b0bb 588b d3bc
00000200: 71a0 883d 4abe 113d abd0 3dbc 2313 8e3d
00000210: 041e 85bc 6db4 003d ad28 cb3c 8385 913d
00000220: 4ddb 39bc b646 aa3c d36a 54bd d190 ca3d
00000230: 0e85 a63d 95d5 44bc 1c3b 5dbd 5e22 0d3d
00000240: 9a51 f13c 666d e1bc c43c 3bbc 0d01 acbd
00000250: b0e6 d73c e119 52bd 8ad7 123d f99a 293d
00000260: 09c8 e5bc b1bd 953c 78f3 5f3d 89c1 b33c
00000270: ad27 723d 236d 893d 979b c13b 0373 a0bc
00000280: e035 ceba 17b2 003b e25d 45bb a80f 50bd
00000290: ccdc c2bb b141 d83c a576 bd3c 576c 783d
000002a0: 5b20 623d 2208 7f3d bb4e 0bbc 486e 823d
000002b0: b818 24bd c077 2d3c 684d 473d d0b6 2e3a
000002c0: 6142 a3bd 1b68 03bd d43b 5fbd f05c 613d
000002d0: 64a3 44bd 1ed1 3e3d 1c16 92bd 5e7a 933d
000002e0: 5d8d 4c3d 11e5 9e3d 6905 3e3d 032c 1cbc
000002f0: e985 023d 50c6 4b3d da80 1cbd 2f84 b9bd
00000300: a535 2f3d 4c1e 24bc 8eb6 90bd dd24 273d
00000310: b832 adbd e922 e53c 51bf d93c 1a01 0bbc
00000320: ab6e 8ebd e989 67bc a103 6f3d b3d6 05bd
00000330: e1c3 67ba 4866 8abd 3692 883d e305 4abd
00000340: ea2d ecbc 5148 7cbc d4bc 4b3d 8a44 893d
00000350: d6ae 5abc 0c86 54bc d173 f739 f376 d93a
00000360: 19be 693d 72de 033d 4924 583d 9ca2 76bb
00000370: 0dbd a13c 0045 ce3c 63a2 08bd 8ee1 103d
00000380: 156a 813d 1e3c 533d a2f3 14bd e7b7 513d
00000390: 9a3d cbbc 8c49 a1bd c73d 2dbb ad3c 573d
000003a0: 4aa7 18bd cf75 573d 308d 37bd 53ef 873d
000003b0: e900 143d 0c89 31bd e866 a0bd e9e3 fb3c
000003c0: 7f1d 603d 5cee 22bd 08e1 323d fb3a b3bd
000003d0: 9e42 aabb 3f58 d0bd 5cd6 3f3c 5519 da3b
000003e0: 032b 1cbc e2b9 b43c 9c16 bb3d 77f0 8abd
000003f0: 28a7 273b fda5 81bb e11e a1bd 8953 f2bd

sequential/conv2d_2/BiasAdd/ReadVariableOp/resource f4 [64]
-0.023303699 -0.027297571 -0.018510818 -0.0023856037 0.0019642233 -0.019778233 0.017612357 -0.009436473
-0.008046569 0.013172122 -0.003945535 -0.024739511 0.011559148 -0.020696694 -0.010832693 -0.020386903
0.02747812 0.022352984 0.027705789 -0.025426196 -0.022814214 0.024696281 0.013784416 0.012093826
-0.018461168 -0.003500015 -0.0035442368 -0.02190331 -0.013925603 -0.025620934 -0.01608669 0.005623829
-0.026216796 0.021828316 0.0016089613 -0.016616203 -0.019487128 -0.015892103 0.0020148933 0.020952554
-0.0031782282 -0.00993962 -0.0019471975 -0.013512816 -0.021361781 -0.0085663805 -0.02074056 -0.011022748
-0.00665957 -0.004879297 0.017449522 0.026510691 -0.020787165 -0.01754857 -0.02191998 -0.018710265
0.010428493 -0.0006603752 -0.02298842 -0.0054393983 -0.025634127 -0.016280685 -0.014558618 0.0023659205
00000000: 66e7 bebc 289f dfbc 00a4 97bc ca57 1cbb
00000010: 33ba 003b f605 a2bc ca47 903c 709b 1abc
00000020: c2d5 03bc e2cf 573c 8c49 81bb 84aa cabc
00000030: 9562 3d3c 1d8c a9bc 9c7b 31bc 6f02 a7bc
00000040: cb19 e13c 9b1d b73c 40f7 e23c 994a d0bc
00000050: e0e4 babc db4f ca3c 08d8 613c 2f25 463c
00000060: e03b 97bc 8260 65bb 6d46 68bb 926e b3bc
00000070: 3628 64bc fee2 d1bc 3cc8 83bc 1948 b83b
00000080: 9bc4 d6bc 4cd1 b23c c8e3 d23a b41e 88bc
00000090: 78a3 9fbc 2830 82bc 4d0c 043b b1a4 ab3c
000000a0: d249 50bb cad9 22bc 1b39 ffba dc64 5dbc
000000b0: e7fe aebc 015a 0cbc 1be8 a9bc c298 34bc
000000c0: 8638 dabb 83e2 9fbb 4df2 8e3c f32c d93c
000000d0: d849 aabc 05c2 8fbc 8891 b3bc 4546 99bc
000000e0: 45dc 2a3c 081d 2dba 3652 bcbc fb3c b2bb
000000f0: a9fe d1bc 125f 85bc 4587 6ebc 8f0d 1b3b

sequential/conv2d_3/Conv2D f4 [64, 3, 3, 64]
0.031234873 -0.00043253897 -0.0009775279 0.0022948168 0.0030713 -0.05354693 0.035031598 -0.011679941
0.037051845 -0.010981262 0.061148375 -0.028022707 0.062295698 0.03435212 0.004338533 0.044293873
0.032359794 -0.01965471 -0.03738735 0.04568418 -0.040713515 0.03953177 0.080359474 0.01145942
-0.07665768 0.0140585955 -0.03840462 -0.04734744 -0.024243973 0.021035269 -0.0473661 -0.025712034
-0.03217568 0.057943158 0.046421316 -0.08478776 0.022845572 0.06106177 -0.00948039 -0.045636643
-0.003150188 0.048480503 -0.030038135 0.055567108 -0.042833555 -0.01259185 -0.007906176 0.022511605
-0.07392486 0.027161362 0.060136013 -0.013536291 -0.052369393 -0.039626874 0.0040271226 -0.043728657
0.037459433 -0.08072749 0.032657158 0.043416392 0.015986469 -0.0120851975 -0.06752243 -0.08193286
-0.044442203 -0.029234676 -0.03402927 -0.10148672 0.064274 -0.03394636 0.03950878 -0.005696511
0.0091714375 0.0038098686 -0.024069393 -0.048554648 0.07989506 0.05584435 -0.046089377 -0.0036230749
0.09743595 -0.013735372 -0.024261238 -0.058349036 0.018006489 -0.01675125 0.084814794 0.015278249
0.049202565 -0.02797259 -0.037065588 -0.05023094 -0.004796867 0.015258986 -0.032632757 -0.058087893
-0.060060553 0.017191127 0.03643342 -0.05204372 -0.0726357 -0.03679877 0.06277872 -0.013309841
-0.05453743 -0.06745685 -0.053842384 0.029363453 -0.07659573 -0.042745102 -0.014650388 -0.03458202
-0.0432926 -0.030985665 0.07043749 0.07536038 -0.00032435148 -0.07519385 -0.016013997 0.049401008
-0.009616972 -0.018251462 0.041034006 -0.07004262 0.04113276 0.026863808 0.010692639 -0.08338904
0.02395417 0.018762963 0.022745177 0.038222134 0.037148193 -0.030737454 0.052977037 -0.008568258
-0.041831307 -0.008698198 0.05220305 -0.035035558 0.052891597 -0.016724024 -0.07673966 0.03370308
0.08845354 -0.015367314 0.012457515 0.043918364 -0.00046378575 0.018753368 0.08757258 0.023177916
-0.07047796 -0.019993521 -0.018991873 0.03109813 0.038695812 0.016265485 -0.09923939 -0.056899123
-0.006226261 0.047279067 -0.058211178 0.016099479 -0.055419248 -0.07851056 -0.026089437 -0.032015327
-0.081799656 0.06009144 -0.020842578 -0.031022374 -0.057906743 -0.036893174 0.06258271 0.056651562
-0.026043402 0.022673449 0.0018331404 0.09050483 -0.057716534 -0.04707226 0.027648417 -0.052420285
0.06308443 0.08044545 0.018489989 0.0436063 0.03838127 -0.08253656 -0.04461709 0.042124987
-0.047191836 0.042658575 0.06691251 0.036076203 0.033014007 -0.047216877 0.03629709 -0.041068155
0.01495881 -0.024705853 -0.028207157 -0.025587736 -0.019249348 -0.042976003 0.038715743 -0.0077045304
-0.009148756 0.010509801 0.06355774 0.004863987 0.056413528 0.007751059 -0.017380796 -0.05562894
-0.073883 0.0006121394 0.061084572 -0.09930907 -0.036169752 -0.087962925 0.038707215 0.022378214
0.0066723665 0.094428174 0.0061463206 -0.045656554 0.03384764 0.04192714 -0.023676874 0.036357116
0.022220155 0.009967025 0.053677846 0.041841023 -0.029404165 0.0010790386 -0.048082087 -0.0026843278
0.039409842 -0.014751701 0.10331114 -0.038850665 -0.007665145 0.018316321 0.01393865 0.0066145505
0.05502211 -0.06014074 -0.03126042 -0.07731014 -0.04177746 -0.048359495 0.06005769 -0.095896706
00000000: 47e0 ff3c 66c6 e2b9 6520 80ba a364 163b
00000010: dd47 493b 0754 5bbd 4b7d 0f3d 395d 3fbc
00000020: adc3 173d c0ea 33bc b876 7a3d e08f e5bc
00000030: c629 7f3d cfb4 0c3d 412a 8e3b 7e6d 353d
00000040: b48b 043d ea02 a1bc 7a23 19bd 561f 3b3d
00000050: 37c3 26bd 11ec 213d 8293 a43d 4bc0 3b3c
00000060: b4fe 9cbd 0656 663c 2a4e 1dbd 64ef 41bd
00000070: 4c9b c6bc 2852 ac3c f502 42bd 0ba2 d2bc
00000080: a5ca 03bd ce55 6d3d 4724 3e3d 35a5 adbd
00000090: a326 bb3c e81b 7a3d a353 1bbc 7ded 3abd
000000a0: 6273 4ebb 7e93 463d 8912 f6bc 569a 633d
000000b0: 3d72 2fbd 0c4e 4ebc e888 01bc 426a b83c
000000c0: eb65 97bd 8181 de3c 2e51 763d 52c7 5dbc
000000d0: 4a81 56bd ca4f 22bd f4f5 833b d21c 33bd
000000e0: 106f 193d 7454 a5bd 83c3 053d 63d5 313d
000000f0: 0ef6 823c fe00 46bc 3349 8abd 6acc a7bd
00000100: 0709 36bd 8f7d efbc 4762 0bbd 45d8 cfbd
00000110: 16a2 833d 570b 0bbd f5d3 213d cca9 babb
00000120: cc43 163c fdae 793b 2d2d c5bc 3de1 46bd
00000130: 05a0 a33d 0cbd 643d 37c8 3cbd 1c71 6dbb
00000140: 808c c73d 530a 61bc 81bf c6bc 66ff 6ebd
00000150: 5882 933c eb39 89bc 61b3 ad3d 9f51 7a3c
00000160: a188 493d c626 e5bc 16d2 17bd f5be 4dbd
00000170: 092f 9dbb d300 7a3c eda9 05bd 92ed 6dbd
00000180: 0e02 76bd 68d4 8c3c 363b 153d cc2b 55bd
00000190: 07c2 94bd 4fba 16bd 2192 803d 8511 5abc
000001a0: a462 5fbd d126 8abd d589 5cbd a08b f03c
000001b0: 39de 9cbd 7d15 2fbd 2e08 70bc e0a5 0dbd
000001c0: 9553 31bd a6d5 fdbc 8841 903d 8b56 9a3d
000001d0: b80d aab9 3cff 99bd c92f 83bc b658 4a3d
000001e0: 8190 1dbc 1784 95bc 4613 283d 8172 8fbd
000001f0: d37a 283d 7d11 dc3c 2e30 2f3c dfc7 aabd
00000200: 893b c43c c9b4 993c 1854 ba3c d08e 1c3d
00000210: b428 183d 1dcd fbbc 73fe 583d e161 0cbc
00000220: 4e57 2bbd e382 0ebc ded2 553d 7281 0fbd
00000230: dca4 583d d200 89bc af29 9dbd 3e0c 0a3d
00000240: 2127 b53d 30c7 7bbc 9b1a 4c3c bee3 333d
00000250: 4528 f3b9 aaa0 993c 4159 b33d 9ddf bd3c
00000260: c056 90bd 74c9 a3bc d894 9bbc 81c1 fe3c
00000270: 807f 1e3d 323f 853c 053e cbbd 0e0f 69bd
00000280: aa05 ccbb b2a7 413d d86e 6ebd 0ee3 833c
00000290: 4bff 62bd 25ca a0bd 84b9 d5bc 8122 03bd
000002a0: 9486 a7bd 7122 763d 0ebe aabc a222 febc
000002b0: 9f2f 6dbd 4c1d 17bd 5d2b 803d 780b 683d
000002c0: f958 d5bc abbd b93c fc45 f03a 995a b93d
000002d0: 2c68 6cbd d8ce 40bd ef7e e23c a7b6 56bd
000002e0: 6932 813d 96c0 a43d 5178 973c 859c 323d
000002f0: ae35 1d3d ee08 a9bd 69c0 36bd 408b 2c3d
00000300: 3a4c 41bd c2ba 2e3d 6d09 893d a4c4 133d
00000310: b239 073d 7c66 41bd 42ac 143d 1537 28bd
00000320: cc15 753c ee63 cabc b212 e7bc 5f9d d1bc
00000330: cfb0 9dbc 9b07 30bd 6694 1e3d 4976 fcbb
00000340: aae4 15bc 4d31 2c3c 8f2a 823d 1562 9f3b
00000350: df11 673d 98fc fd3b 2c62 8ebc 2cdb 63bd
00000360: f84f 97bd fb77 203a d133 7a3d 8e62 cbbd
00000370: bc26 14bd e825 b4bd 758b 1e3d 8452 b73c
00000380: dea3 da3b 8f63 c13d 1367 c93b 5e02 3bbd
00000390: d3a3 0a3d cbbb 2b3d 01f6 c1bc 33eb 143d
000003a0: 0b07 b63c bc4c 233c 4ddd 5b3d 7e61 2b3d
000003b0: 01e1 f0bc 876e 8d3a b9f1 44bd 8ceb 2fbb
000003c0: 376c 213d 1eb1 71bc ca94 d33d e021 1fbd
000003d0: e62b fbbb 1c0c 963c ef5e 643c dfbe d83b
000003e0: dd5e 613d 2356 76bd ed0a 00bd c754 9ebd
000003f0: d81e 2bbd 9b14 46bd 0dff 753d 7e65 c4bd

sequential/conv2d_3/BiasAdd/ReadVariableOp/resource f4 [64]
0.01630381 -0.016723115 -0.020678937 -0.004321991 -0.013572411 0.012892138 -0.01706886 0.016432825
-0.017002862 0.010234485 0.0016039266 -0.019334402 0.006443351 -0.018852703 -0.01366536 0.014514402
-0.020235179 0.0142726535 0.021829233 -0.020186948 -0.022900226 -0.012824655 0.0069051543 0.016261017
0.0031504012 -0.009311981 0.01480609 0.018335352 -0.019160826 -0.013810013 -0.007464191 -0.006719082
0.011345607 -0.0020984325 -0.009013835 -0.011349195 -0.016449554 0.024471443 -0.009557275 -0.0076881424
-0.02201513 -0.015462789 -0.02433563 -0.010992247 -0.023713253 0.0084511 -0.020768173 0.0037436965
0.0029619185 -0.021669652 -0.004134182 -0.02038044 -0.01632773 -0.020714205 -0.01901158 -0.016222795
-0.007833873 -0.017746253 -0.009827764 -0.012401737 -0.018878186 0.013110259 0.017146274 -0.019300455
00000000: 918f 853c eafe 88bc e066 a9bc 7d9f 8dbb
00000010: d15e 5ebc 8c39 533c fed3 8bbc 229e 863c
00000020: 9649 8bbc 8bae 273c d93a d23a 2e63 9ebc
00000030: bf22 d33b fc70 9abc ade4 5fbc d0cd 6d3c
00000040: 3fc4 a5bc d9d7 693c 38d3 b23c 195f a5bc
00000050: 4199 bbbc 801e 52bc a244 e23b d335 853c
00000060: f676 4e3b 4791 18bc 3e95 723c 0534 963c
00000070: 2af7 9cbc 6543 62bc 2c96 f4bb bf2b dcbb
00000080: ede2 393c db85 09bb c4ae 13bc f9f1 39bc
00000090: 37c1 86bc 5678 c83c 1e96 1cbc d0ec fbbb
000000a0: 1359 b4bc a357 7dbc 845b c7bc d318 34bc
000000b0: 4c42 c2bc 7c76 0a3c 0422 aabc ce58 753b
000000c0: bf1c 423b 8e84 b1bc 0878 87bb e1f4 a6bc
000000d0: bbc1 85bc d6b0 a9bc 2cbe 9bbc abe5 84bc
000000e0: a559 00bc 9760 91bc a104 21bc a830 4bbc
000000f0: 6da6 9abc 69cc 563c 5876 8c3c fd1b 9ebc

sequential/conv2d_4/Conv2D f4 [64, 3, 3, 64]
0.06859851 0.00838063 -0.057208527 -0.00067437143 -0.057901707 0.028400159 -0.016082635 0.0064656017
0.058358554 0.0011462375 0.048972692 -0.054716174 0.03701916 -0.044944447 0.03862591 0.07815323
0.00963289 -0.027871024 0.048874706 -0.012933364 -0.01029872 0.028989768 -0.043165952 -0.0018453563
-0.0019095974 0.048257004 0.0159701 0.087028936 0.034303706 -0.06735385 0.0025253766 -0.040163755
-0.0045580585 0.018984843 0.02484874 0.0150300525 0.033731345 0.080266364 0.0828166 0.050242897
-0.056569744 -0.056553423 0.06705342 0.005506188 0.004751898 -0.03835023 0.052535214 0.053079132
0.018800406 -0.015008268 -0.060524926 -0.01714984 -0.06840566 -0.07122357 0.01812259 -0.088444225
-0.026186693 0.017646138 0.06806006 -0.09492115 0.005544058 0.106156506 0.018743962 0.046206433
0.048964493 0.0342494 -0.014572713 -0.04936901 -0.063100055 0.0030736162 -0.03826822 -0.017777523
0.03127611 0.099427536 0.04646192 0.011662332 0.041470654 -0.00016928176 -0.04141901 0.002457672
-0.04749754 0.04256968 -0.008740318 -0.03566022 -0.0029859457 -0.042716533 0.10234266 0.096728265
0.018065367 0.05775837 0.09792893 0.020881288 0.010779308 -0.04510141 0.028532801 -0.003695034
-0.003336994 -0.011964847 0.002865538 -0.07456549 -0.040775873 0.061191257 0.040745042 0.07258392
0.003279823 -0.053495742 0.055537403 -0.017541964 0.009704584 0.10901997 0.04640296 -0.039354667
0.053428214 -0.029553184 0.04060593 0.017819023 -0.036412507 0.07086428 -0.020001756 -0.049668685
-0.06705468 0.0033414054 -0.031121055 -0.032852918 0.0036108592 0.0950462 0.050057918 -0.020248923
0.067829445 -0.036221437 0.010548445 -0.015629785 0.037272513 0.016731495 -0.028565584 0.00060991716
-0.044868924 -0.008458127 -0.0370563 -0.07179293 0.091836646 -0.07158184 -0.05435834 -0.013634822
0.00053772994 0.0090329675 0.023719424 0.035465818 0.02427992 0.059232403 0.038671847 0.08250231
-0.03441265 -0.02531891 -0.0034695144 0.042079344 -0.032036033 -0.054761592 0.0944296 -0.041663922
-0.008029924 -0.011773035 0.0061605778 0.05478873 0.044046093 0.040563542 -0.036815334 0.03023942
-0.00070866436 -0.08485207 0.008595099 0.028853854 0.0026103952 0.005818017 -0.023912922 0.041897167
0.07527062 -0.0292427 0.0049674637 0.032001972 -0.07914973 -0.06031441 -0.012794383 0.010160217
0.01788822 -0.014987746 0.008378008 0.044390224 0.0397317 0.084166065 0.07130101 0.022305498
-0.005252564 0.038701244 0.019457463 -0.013489582 0.06593576 0.105854526 0.042775065 0.034396626
-0.016342722 -0.02971 -0.039092302 -0.05553715 -0.04685492 -0.018775612 -0.0019715354 -0.025356185
0.034257267 0.073992364 0.099212825 -0.053107712 -0.043081153 -0.07707004 -0.026896056 0.10019291
0.037649337 -0.05203667 -0.03916355 0.0495479 -0.080551125 -0.05478691 0.033795174 -0.008632878
0.10343645 -0.038826663 -0.031100987 0.052249648 -0.067216046 -0.038382653 0.018355884 0.063492805
-0.06807347 0.05649097 -0.050209913 0.04211606 -0.046094567 0.062976286 0.038071617 -0.047841717
0.12751853 0.049801014 0.022403974 -0.00044709913 -0.05104305 -0.03790395 0.05399887 -0.007973251
-0.055508327 -0.02541878 -0.03373412 0.041908488 0.012144663 0.0074071526 -0.0016897277 -0.022890417
00000000: 607d 8c3d e94e 093c 7d53 6abd 4dc8 30ba
00000010: 572a 6dbd 73a7 e83c bbbf 83bc 66dd d33b
00000020: 6109 6f3d 593d 963a 9797 483d 111e 60bd
00000030: 67a1 173d ab17 38bd 3436 1e3d cd0e a03d
00000040: 45d3 1d3c c651 e4bc d830 483d 76e6 53bc
00000050: f6bb 28bc f37b ed3c c8ce 30bd e2df f1ba
00000060: 754b faba 23a9 453d bad3 823c 3a3c b23d
00000070: 0b82 0c3d d1f0 89bd ca80 253b c082 24bd
00000080: c45b 95bb 1a86 9b3c 968f cb3c 9c40 763c
00000090: e129 0a3d b162 a43d c09b a93d 7fcb 4d3d
000000a0: adb5 67bd 90a4 67bd 4e53 893d 416d b43b
000000b0: cfb5 9b3b 2115 1dbd 2a2f 573d 8169 593d
000000c0: 4f03 9a3c 3de5 75bc fce8 77bd d27d 8cbc
000000d0: 4418 8cbd aadd 91bd d375 943c 3f22 b5bd
000000e0: 7a85 d6bc a28e 903c 1363 8b3d 0566 c2bd
000000f0: eeaa b53b 9568 d93d f08c 993c f542 3d3d
00000100: fe8e 483d 1949 0c3d 63c2 6ebc 2937 4abd
00000110: 9a3a 81bd b96e 493b 23bf 1cbd 2ba2 91bc
00000120: 611b 003d aaa0 cb3d db4e 3e3d 5e13 3f3c
00000130: 22dd 293d 3a81 31b9 fba6 29bd e510 213b
00000140: c88c 42bd 8b5d 2e3d 8d33 0fbc 7310 12bd
00000150: dbaf 43bb 88f7 2ebd 0799 d13d 7819 c63d
00000160: d2fd 933c 0a94 6c3d f68e c83d 3c0f ab3c
00000170: b29b 303c 42bc 38bd 9fbd e93c 6228 72bb
00000180: 78b1 5abb 3508 44bc c0cb 3b3b cbb5 98bd
00000190: 9a04 27bd afa3 7a3d 46e4 263d e1a6 943d
000001a0: 4df2 563b 5a1e 5bbd 307b 633d 2ab4 8fbc
000001b0: faff 1e3c dd45 df3d 0811 3e3d 5c32 21bd
000001c0: 8bd7 5a3d 8519 f2bc 6752 263d 33f9 913c
000001d0: 4825 15bd 4b21 913d b9da a3bc 6471 4bbd
000001e0: f753 89bd 7bfb 5a3b 95f1 febc c890 06bd
000001f0: 2aa4 6c3b 95a7 c23d 8809 4d3d 12e1 a5bc
00000200: 2aea 8a3d ee5c 14bd 63d3 2c3c 090a 80bc
00000210: 10ab 183d 7d10 893c 5f02 eabc d9e2 1f3a
00000220: 7ac8 37bd f593 0abc 59c8 17bd 2c08 93bd
00000230: da14 bc3d 8099 92bd daa6 5ebd 9764 5fbc
00000240: 72f6 0c3a 03ff 133c 3d4f c23c 9b44 113d
00000250: afe6 c63c ad9d 723d 5f66 1e3d f9f6 a83d
00000260: 47f4 0cbd 9a69 cfbc cb60 63bb 645b 2c3d
00000270: 3738 03bd b14d 60bd 4e64 c13d caa7 2abd
00000280: f18f 03bc b0e3 40bc acde c93b 266a 603d
00000290: ad69 343d f525 263d adcb 16bd a9b8 f73c
000002a0: a9c5 39ba ecc6 adbd 75d2 0c3c eb5e ec3c
000002b0: 2a13 2b3b 10a5 be3b 08e5 c3bc 5d9c 2b3d
000002c0: 7c27 9a3d 638e efbc 1bc6 a23b 8014 033d
000002d0: 4119 a2bd 3e0c 77bd 889f 51bc 0a77 263c
000002e0: 518a 923c 2a8f 75bc ea43 093c 86d2 353d
000002f0: b5bd 223d 425f ac3d 4406 923d 05ba b63c
00000300: b31d acbb 3285 1e3d 4265 9f3c 6803 5dbc
00000310: 5409 873d 42ca d83d e834 2f3d 7ae3 0c3d
00000320: 2ce1 85bc 6362 f3bc 401f 20bd ec7a 63bd
00000330: f2ea 3fbd 50cf 99bc e034 01bb c6b7 cfbc
00000340: 5951 0c3d 4f89 973d 1830 cb3d 7987 59bd
00000350: dd75 30bd e6d6 9dbd 1e55 dcbc f131 cd3d
00000360: 3136 1a3d 6724 55bd f569 20bd bdf2 4a3d
00000370: fdf7 a4bd 3d68 60bd cf6c 0a3d ea70 0dbc
00000380: 7dd6 d33d b508 1fbd 7fc7 febc ba03 563d
00000390: 91a8 89bd 2137 1dbd 145f 963c 8408 823d
000003a0: 1a6a 8bbd 1363 673d e9a8 4dbd e481 2c3d
000003b0: a8cd 3cbd b6f9 803d fcf0 1b3d adf5 43bd
000003c0: 3894 023e 26fc 4b3d 8a88 b73c a168 eab9
000003d0: 8412 51bd 2c41 1bbd eb2d 5d3d 3da2 02bc
000003e0: b35c 63bd 0c3b d0bc ca2c 0abd 3ca8 2b3d
000003f0: 69fa 463c b3b7 f23b da79 ddba af84 bbbc

sequential/conv2d_4/BiasAdd/ReadVariableOp/resource f4 [64]
0.029289275 -0.03125589 -0.014175546 -0.018398084 -0.0052303546 0.019014403 0.013248052 0.019408911
0.021861952 0.010006992 -0.01855946 -0.017044367 0.008340302 -0.014536134 -0.016012708 0.009129647
0.011967029 -0.013926068 0.00010756326 -0.0318509 0.026663676 -0.012765913 -0.015762217 -0.01751873
-0.008605843 -0.0050889277 -0.0054467134 -0.008207003 -0.0077954126 -0.020602493 -0.01956409 0.0015023855
-0.016369775 0.017906724 0.00841391 -0.012735552 -0.018048106 -0.02148034 -0.019348066 -0.008220058
-0.028697573 -0.009736049 -0.027914649 0.030375933 -0.013299233 0.016885262 -0.019855255 -0.01985395
-0.017860977 -0.009347297 -0.009172915 -0.0151104415 -0.009208193 -0.016245278 -0.017229335 -0.020016093
0.023887182 -0.019315032 -0.0064401636 0.002170165 0.015930941 -0.016988294 -0.02406061 -0.01634341
00000000: 10f0 ef3c 2d06 00bd 8d40 68bc 94b7 96bc
00000010: 6563 abbb 18c4 9b3c 5c0e 593c 70ff 9e3c
00000020: d617 b33c 5ef4 233c 020a 98bc a1a0 8bbc
00000030: c3a5 083c f728 6ebc 152d 83bc 8494 153c
00000040: 5c11 443c 2a2a 64bc 9693 e138 1776 02bd
00000050: c86d da3c 1f28 51bc c41f 81bc 7183 8fbc
00000060: 86ff 0cbc 05c1 a6bb 587a b2bb aa76 06bc
00000070: a970 ffbb 8fc6 a8bc df44 a0bc b1eb c43a
00000080: e819 86bc 1fb1 923c 7fda 093c c7a8 50bc
00000090: 9fd9 93bc 8af7 afbc d67f 9ebc 6cad 06bc
000000a0: 2c17 ebbc f383 1fbc 43ad e4bc f3d6 f83c
000000b0: 07e5 59bc f652 8a3c 7da7 a2bc c0a4 a2bc
000000c0: 2f51 92bc 6825 19bc fe49 16bc c991 77bc
000000d0: f6dd 16bc d114 85bc 8924 8dbc caf8 a3bc
000000e0: 0daf c33c 8f3a 9ebc 0208 d3bb 5439 0e3b
000000f0: 9b81 823c 092b 8bbc c21a c5bc 9de2 85bc

sequential/conv2d_5/Conv2D f4 [64, 3, 3, 64]
-0.02034804 0.035765253 -0.021704247 0.035248242 0.014670515 -0.059073765 0.03118891 0.006061641
0.029569853 -0.026775049 0.042750567 0.006152447 -0.032520387 0.0601223 0.041791666 -0.061475106
0.034671016 -0.033696868 0.052775085 0.0024661436 -0.037360623 -0.0045133317 -0.043757766 -0.012664255
-0.017046828 -0.046107225 -0.039673045 0.050083205 -0.06469839 -0.036166795 -0.030994201 0.025374845
0.04578106 0.0028760422 -0.018348996 0.008332147 0.047522925 -0.02028189 0.06625929 0.012474998
0.04070685 0.05279396 -0.059359718 -0.032499053 0.05022888 -0.07010196 -0.022855496 0.043369427
-0.024583839 -0.057064023 0.06485311 0.04227601 0.0639692 0.056332793 0.015144697 -0.0554528
-0.057772648 0.004084501 0.0059041632 0.049199928 0.0032584667 0.026113197 -0.039159484 0.047949072
0.00079687976 0.082192056 0.050073512 -0.029458834 -0.05471354 0.031048443 -0.050724246 -0.04967407
0.021150915 0.06430259 0.038184658 0.017150205 0.012033754 -0.065066665 0.033786748 0.018840393
-0.040924214 -0.0025254816 -0.0011433125 0.047255468 0.04306527 0.019727735 0.039830595 0.077840455
0.006205635 -0.061623342 -0.022256793 0.04911211 0.0136000505 0.052572466 -0.022660263 -0.03642482
-0.00092441455 0.01719826 -0.00920246 -0.033772588 0.05070762 -0.06584184 0.021922776 0.025621813
0.022753363 0.0009829216 0.0054254998 -0.008431979 0.012540681 0.048422646 -0.057406563 0.03395113
0.04678008 0.008405871 0.0054548155 0.028001904 -0.043253236 -0.0067650015 0.0752938 -0.06537841
-0.046125744 0.07545009 -0.050207473 -0.07332197 -0.027133688 -0.007412171 -0.033938624 -0.03699939
-0.08424874 0.03435308 0.034044474 0.027400238 0.059413016 -0.064282425 -0.054631684 -0.013631642
0.039821267 -0.025729327 0.027956828 -0.012729709 0.027587524 0.056201406 0.073219284 -0.029306563
0.009818716 -0.0026295395 -0.00623471 0.031997014 0.019323597 0.047347207 0.08424808 0.060012117
-0.030082356 -0.02955507 -0.03934709 -0.011415106 -0.040120546 0.052595645 0.056635458 -0.06541794
0.027647898 -0.05552744 0.022336915 -0.06430678 0.008133789 0.048450537 0.03043673 -0.005627985
0.04571502 0.0060962536 0.013818318 -0.08176946 -0.052910537 0.009713786 0.01951115 0.031424187
-0.060047936 -0.03552059 -0.014585174 -0.023735764 0.00801301 -0.022227263 0.030306617 0.014252165
0.016447585 -0.018989595 -0.027870787 -0.04182903 -0.08743484 -0.058264893 -0.05034496 -0.01938612
0.0287519 -0.048932604 0.012875012 0.018145602 -0.050397463 0.0074579855 0.012448124 -0.06044202
-0.050016392 -0.014876846 -0.011712231 0.07467557 0.052271992 0.05350746 -0.054569796 0.021585055
0.067360625 -0.057315405 0.0530174 -0.014165567 -0.06355326 -0.019823143 -0.0223947 0.030944645
0.03614632 -0.039737925 0.031146377 -0.05253707 0.030813167 -0.06407987 0.005175158 0.07729566
0.035143886 -0.015491407 0.063337244 -0.0048398436 0.030463034 -0.05393163 0.059212826 -0.007460884
-0.0023605924 -0.026767142 -0.018174425 -0.048748873 -0.012999973 -0.07331286 0.029145898 0.018510183
-0.014370953 -0.007238011 -0.008190629 -0.07085978 0.026073182 0.042691413 -0.053873308 -0.007215171
0.018206 -0.038117006 -0.059731714 0.022818614 -0.042457864 -0.028579216 0.06980638 -0.05292723
00000000: efb0 a6bc 967e 123d 1bcd b1bc 7660 103d
00000010: 9a5c 703c 55f7 71bd e37f ff3c bba0 c63b
00000020: 7a3c f23c 5957 dbbc 381b 2f3d 779a c93b
00000030: 1934 05bd cd42 763d bd2d 2b3d 52cd 7bbd
00000040: 3203 0e3d ba05 0abd b02a 583d 069f 213b
00000050: 7407 19bd 92e4 93bb 583b 33bd bc7d 4fbc
00000060: caa5 8bbc eeda 3cbd 3480 22bd 0c24 4d3d
00000070: 9780 84bd a223 14bd 8de7 fdbc e8de cf3c
00000080: ec84 3b3d fb7b 3c3b a250 96bc 8f83 083c
00000090: 66a7 423d 3526 a6bc f3b2 873d ef63 4c3c
000000a0: 3abc 263d 7b3e 583d 2d23 73bd ba1d 05bd
000000b0: ccbc 4d3d 9e91 8fbd 733b bbbc 24a4 313d
000000c0: 0c64 c9bc f7bb 69bd b5d1 843d 9c29 2d3d
000000d0: 4902 833d 37bd 663d 7721 783c 7a22 63bd
000000e0: 03a3 6cbd 47d7 853b b677 c13b dd85 493d
000000f0: 008c 553b 58eb d53c b265 20bd 3f66 443d
00000100: b2e5 503a 4f54 a83d e219 4d3d a753 f1bc
00000110: 4e1b 60bd 4e59 fe3c 3ac4 4fbd 0a77 4bbd
00000120: af44 ad3c 14b1 833d 8467 1c3d 967e 8c3c
00000130: 3929 453c ac41 85bd f963 0a3d 2b57 9a3c
00000140: 26a0 27bd 8d82 25bb 34db 95ba f38e 413d
00000150: 3565 303d 0f9c a13c 6825 233d d16a 9f3d
00000160: a458 cb3b c268 7cbd e153 b6bc c829 493d
00000170: bfd2 5e3c 3a56 573d 04a2 b9bc 3132 15bd
00000180: 6954 72ba 5ee3 8c3c eac5 16bc 2055 0abd
00000190: cbb2 4f3d 16d8 86bd 6597 b33c d6e4 d13c
000001a0: 4365 ba3c 60d5 803a 64c8 b13b 4926 0abc
000001b0: 6e77 4d3c d356 463d 2523 6bbd 5710 0b3d
000001c0: 789c 3f3d c7b8 093c 4fbe b23b 4064 e53c
000001d0: 4e2a 31bd f2ac ddbb a333 9a3d 1ee5 85bd
000001e0: 59ee 3cbd 9485 9a3d 5aa6 4dbd d429 96bd
000001f0: 7847 debc cce1 f2bb 3a03 0bbd ac8c 17bd
00000200: 9a8a acbd d1b5 0c3d 3872 0b3d 7776 e03c
00000210: 105b 733d 81a6 83bd 79c5 5fbd 4057 5fbc
00000220: a01b 233d 4fc6 d2bc b805 e53c 4590 50bc
00000230: 3bff e13c 7233 663d fef3 953d 5114 f0bc
00000240: aede 203c 5a54 2cbb 8a4c ccbb 4d0f 033d
00000250: 854c 9e3c 25ef 413d 428a ac3d 44cf 753d
00000260: 466f f6bc 791d f2bc 6a2a 21bd 6d06 3bbc
00000270: 7155 24bd 886e 573d 95fa 673d d7f9 85bd
00000280: d87d e23c be70 63bd e8fb b63c 46b3 83bd
00000290: 9543 053c 1274 463d 7356 f93c f66a b8bb
000002a0: ac3f 3b3d 15c3 c73b 3a66 623c bf76 a7bd
000002b0: b8b8 58bd 9226 1f3c d9d5 9f3c a6b6 003d
000002c0: d3f4 75bd 0a7e 11bd a7f6 6ebc 8171 c2bc
000002d0: 0049 033c f315 b6bc 9545 f83c ea81 693c
000002e0: 16bd 863c 1190 9bbc 4751 e4bc eb54 2bbd
000002f0: 0a11 b3bd 2ba7 6ebd 8436 4ebd a4cf 9ebc
00000300: 1b89 eb3c 8e6d 48bd b7f1 523c 16a6 943c
00000310: 926d 4ebd 1e62 f43b 37f3 4b3c 0d92 77bd
00000320: fddd 4cbd 04be 73bc a8e4 3fbc 81ef 983d
00000330: 281b 563d a32a 5b3d 9484 5fbd 24d3 b03c
00000340: 5ef4 893d 8fc3 6abd c628 593d b216 68bc
00000350: 3628 82bd 2564 a2bc 1775 b7bc a07f fd3c
00000360: 2a0e 143d 3cc4 22bd b026 ff3c 1c31 57bd
00000370: e56b fc3c 4f3c 83bd 5f94 a93b 304d 9e3d
00000380: 09f3 0f3d accf 7dbc f5b6 813d 8d97 9ebb
00000390: 9d8d f93c 6ae7 5cbd 2689 723d 6e7a f4bb
000003a0: 2bb4 1abb c446 dbbc 88e2 94bc e6ac 47bd
000003b0: d7fd 54bc 0e25 96bd 61c3 ee3c aba2 973c
000003c0: 2574 6bbc d62c edbb fd31 06bc ef1e 91bd
000003d0: 6d97 d53c 31dd 2e3d 42aa 5cbd 3e6d ecbb
000003e0: c024 953c 9420 1cbd 3ea9 74bd 1aee ba3c
000003f0: 4ce8 2dbd f61e eabc a6f6 8e3d 39ca 58bd

sequential/conv2d_5/BiasAdd/ReadVariableOp/resource f4 [64]
-0.016109092 -0.011481839 -0.015259271 0.033345852 -0.008608095 -0.018552717 -0.004678956 0.005680429
-0.008346668 -0.013616401 -0.017584082 -0.012509192 -0.00997373 0.012442533 -0.006658938 -0.015702225
0.013301667 0.0299982 -0.01292905 0.006332944 -0.0124602895 -0.011341483 -0.016342686 -0.012291704
-0.013704314 -0.01781126 -0.0067062364 -0.0064596254 -0.012966283 -0.0041952925 -0.014945619 -0.014666058
-0.012932699 0.0006317673 0.020386169 -0.019864365 0.010702488 -0.006207361 -0.0074317046 0.024192762
-0.020537654 -0.02790448 -0.014383311 -0.008719232 -0.031082582 0.03460439 -0.039844 -0.009583035
-0.0049207485 -0.012873064 -0.013087339 -0.015861435 0.025205666 -0.0028486743 -0.014994764 -0.017602237
-0.010418229 -0.016688192 0.01727339 -0.020308513 -0.019295918 0.026890408 0.014707109 -0.014234109
00000000: 37f7 83bc 531e 3cbc 0502 7abc a995 083d
00000010: f808 0dbc defb 97bc ed51 99bb e422 ba3b
00000020: 77c0 08bc 5317 5fbc 7e0c 90bc 5bf3 4cbc
00000030: db68 23bc c4db 4b3c 3833 dabb f4a1 80bc
00000040: 3cef 593c c9be f53c 5ed4 53bc 9684 cf3b
00000050: 3e26 4cbc a1d1 39bc 19e1 85bc 2563 49bc
00000060: 0f88 60bc ebe8 91bc fdbf dbbb 44ab d3bb
00000070: 8870 54bc aa78 89bb 78de 74bc e849 70bc
00000080: ace3 53bc 309d 253a e500 a73c 98ba a2bc
00000090: 7d59 2f3c 1e67 cbbb a885 f3bb e62f c63c
000000a0: 953e a8bc f097 e4bc fba7 6bbc 1cdb 0ebc
000000b0: e6a0 febc 55bd 0d3d 7633 23bd 2902 1dbc
000000c0: 3b3e a1bb 8be9 52bc 476c 56bc d7ef 81bc
000000d0: 1d7c ce3c d3b0 3abb 99ac 75bc 9132 90bc
000000e0: 38b1 2abc adb5 88bc ed80 8d3c 0a5e a6bc
000000f0: 7912 9ebc 4649 dc3c 16f6 703c 2e36 69bc
